{"format": "layers-model", "generatedBy": "keras v3.10.0", "convertedBy": "TensorFlow.js Converter v4.22.0", "modelTopology": {"keras_version": "3.10.0", "backend": "tensorflow", "model_config": {"class_name": "Functional", "config": {"name": "functional_4", "trainable": true, "layers": [{"class_name": "InputLayer", "config": {"batch_shape": [null, 380, 380, 3], "dtype": "float32", "sparse": false, "ragged": false, "name": "input_layer_4"}, "name": "input_layer_4", "inbound_nodes": []}, {"class_name": "Rescaling", "config": {"name": "rescaling_6", "trainable": false, "dtype": {"module": "keras", "class_name": "DTypePolicy", "config": {"name": "mixed_float16"}, "registered_name": null}, "scale": 0.00392156862745098, "offset": 0.0}, "name": "rescaling_6", "inbound_nodes": [{"args": [{"class_name": "__keras_tensor__", "config": {"shape": [null, 380, 380, 3], "dtype": "float32", "keras_history": ["input_layer_4", 0, 0]}}], "kwargs": {}}]}, {"class_name": "Normalization", "config": {"name": "normalization_3", "trainable": false, "dtype": {"module": "keras", "class_name": "DTypePolicy", "config": {"name": "mixed_float16"}, "registered_name": null}, "axis": [3], "invert": false, "mean": null, "variance": null}, "name": "normalization_3", "inbound_nodes": [{"args": [{"class_name": "__keras_tensor__", "config": {"shape": [null, 380, 380, 3], "dtype": "float16", "keras_history": ["rescaling_6", 0, 0]}}], "kwargs": {}}]}, {"class_name": "Rescaling", "config": {"name": "rescaling_7", "trainable": false, "dtype": {"module": "keras", "class_name": "DTypePolicy", "config": {"name": "mixed_float16"}, "registered_name": null}, "scale": [2.0896918976428642, 2.1128856368212916, 2.1081851067789197], "offset": 0.0}, "name": "rescaling_7", "inbound_nodes": [{"args": [{"class_name": "__keras_tensor__", "config": {"shape": [null, 380, 380, 3], "dtype": "float16", "keras_history": ["normalization_3", 0, 0]}}], "kwargs": {}}]}, {"class_name": "ZeroPadding2D", "config": {"name": "stem_conv_pad", "trainable": false, "dtype": {"module": "keras", "class_name": "DTypePolicy", "config": {"name": "mixed_float16"}, "registered_name": null}, "padding": [[0, 1], [0, 1]], "data_format": "channels_last"}, "name": "stem_conv_pad", "inbound_nodes": [{"args": [{"class_name": "__keras_tensor__", "config": {"shape": [null, 380, 380, 3], "dtype": "float16", "keras_history": ["rescaling_7", 0, 0]}}], "kwargs": {}}]}, {"class_name": "Conv2D", "config": {"name": "stem_conv", "trainable": false, "dtype": {"module": "keras", "class_name": "DTypePolicy", "config": {"name": "mixed_float16"}, "registered_name": null}, "filters": 48, "kernel_size": [3, 3], "strides": [2, 2], "padding": "valid", "data_format": "channels_last", "dilation_rate": [1, 1], "groups": 1, "activation": "linear", "use_bias": false, "kernel_initializer": {"module": "keras.initializers", "class_name": "VarianceScaling", "config": {"seed": null, "scale": 2.0, "mode": "fan_out", "distribution": "truncated_normal"}, "registered_name": null}, "bias_initializer": {"module": "keras.initializers", "class_name": "Zeros", "config": {}, "registered_name": null}, "kernel_regularizer": null, "bias_regularizer": null, "activity_regularizer": null, "kernel_constraint": null, "bias_constraint": null}, "name": "stem_conv", "inbound_nodes": [{"args": [{"class_name": "__keras_tensor__", "config": {"shape": [null, 381, 381, 3], "dtype": "float16", "keras_history": ["stem_conv_pad", 0, 0]}}], "kwargs": {}}]}, {"class_name": "BatchNormalization", "config": {"name": "stem_bn", "trainable": false, "dtype": {"module": "keras", "class_name": "DTypePolicy", "config": {"name": "mixed_float16"}, "registered_name": null}, "axis": 3, "momentum": 0.99, "epsilon": 0.001, "center": true, "scale": true, "beta_initializer": {"module": "keras.initializers", "class_name": "Zeros", "config": {}, "registered_name": null}, "gamma_initializer": {"module": "keras.initializers", "class_name": "Ones", "config": {}, "registered_name": null}, "moving_mean_initializer": {"module": "keras.initializers", "class_name": "Zeros", "config": {}, "registered_name": null}, "moving_variance_initializer": {"module": "keras.initializers", "class_name": "Ones", "config": {}, "registered_name": null}, "beta_regularizer": null, "gamma_regularizer": null, "beta_constraint": null, "gamma_constraint": null, "synchronized": false}, "name": "stem_bn", "inbound_nodes": [{"args": [{"class_name": "__keras_tensor__", "config": {"shape": [null, 190, 190, 48], "dtype": "float16", "keras_history": ["stem_conv", 0, 0]}}], "kwargs": {"mask": null}}]}, {"class_name": "Activation", "config": {"name": "stem_activation", "trainable": false, "dtype": {"module": "keras", "class_name": "DTypePolicy", "config": {"name": "mixed_float16"}, "registered_name": null}, "activation": "silu"}, "name": "stem_activation", "inbound_nodes": [{"args": [{"class_name": "__keras_tensor__", "config": {"shape": [null, 190, 190, 48], "dtype": "float16", "keras_history": ["stem_bn", 0, 0]}}], "kwargs": {}}]}, {"class_name": "DepthwiseConv2D", "config": {"name": "block1a_dwconv", "trainable": false, "dtype": {"module": "keras", "class_name": "DTypePolicy", "config": {"name": "mixed_float16"}, "registered_name": null}, "depth_multiplier": 1, "kernel_size": [3, 3], "strides": [1, 1], "padding": "same", "data_format": "channels_last", "dilation_rate": [1, 1], "activation": "linear", "use_bias": false, "depthwise_initializer": {"module": "keras.initializers", "class_name": "VarianceScaling", "config": {"seed": null, "scale": 2.0, "mode": "fan_out", "distribution": "truncated_normal"}, "registered_name": null}, "bias_initializer": {"module": "keras.initializers", "class_name": "Zeros", "config": {}, "registered_name": null}, "depthwise_regularizer": null, "bias_regularizer": null, "activity_regularizer": null, "depthwise_constraint": null, "bias_constraint": null}, "name": "block1a_dwconv", "inbound_nodes": [{"args": [{"class_name": "__keras_tensor__", "config": {"shape": [null, 190, 190, 48], "dtype": "float16", "keras_history": ["stem_activation", 0, 0]}}], "kwargs": {}}]}, {"class_name": "BatchNormalization", "config": {"name": "block1a_bn", "trainable": false, "dtype": {"module": "keras", "class_name": "DTypePolicy", "config": {"name": "mixed_float16"}, "registered_name": null}, "axis": 3, "momentum": 0.99, "epsilon": 0.001, "center": true, "scale": true, "beta_initializer": {"module": "keras.initializers", "class_name": "Zeros", "config": {}, "registered_name": null}, "gamma_initializer": {"module": "keras.initializers", "class_name": "Ones", "config": {}, "registered_name": null}, "moving_mean_initializer": {"module": "keras.initializers", "class_name": "Zeros", "config": {}, "registered_name": null}, "moving_variance_initializer": {"module": "keras.initializers", "class_name": "Ones", "config": {}, "registered_name": null}, "beta_regularizer": null, "gamma_regularizer": null, "beta_constraint": null, "gamma_constraint": null, "synchronized": false}, "name": "block1a_bn", "inbound_nodes": [{"args": [{"class_name": "__keras_tensor__", "config": {"shape": [null, 190, 190, 48], "dtype": "float16", "keras_history": ["block1a_dwconv", 0, 0]}}], "kwargs": {"mask": null}}]}, {"class_name": "Activation", "config": {"name": "block1a_activation", "trainable": false, "dtype": {"module": "keras", "class_name": "DTypePolicy", "config": {"name": "mixed_float16"}, "registered_name": null}, "activation": "silu"}, "name": "block1a_activation", "inbound_nodes": [{"args": [{"class_name": "__keras_tensor__", "config": {"shape": [null, 190, 190, 48], "dtype": "float16", "keras_history": ["block1a_bn", 0, 0]}}], "kwargs": {}}]}, {"class_name": "GlobalAveragePooling2D", "config": {"name": "block1a_se_squeeze", "trainable": false, "dtype": {"module": "keras", "class_name": "DTypePolicy", "config": {"name": "mixed_float16"}, "registered_name": null}, "data_format": "channels_last", "keepdims": false}, "name": "block1a_se_squeeze", "inbound_nodes": [{"args": [{"class_name": "__keras_tensor__", "config": {"shape": [null, 190, 190, 48], "dtype": "float16", "keras_history": ["block1a_activation", 0, 0]}}], "kwargs": {}}]}, {"class_name": "Reshape", "config": {"name": "block1a_se_reshape", "trainable": false, "dtype": {"module": "keras", "class_name": "DTypePolicy", "config": {"name": "mixed_float16"}, "registered_name": null}, "target_shape": [1, 1, 48]}, "name": "block1a_se_reshape", "inbound_nodes": [{"args": [{"class_name": "__keras_tensor__", "config": {"shape": [null, 48], "dtype": "float16", "keras_history": ["block1a_se_squeeze", 0, 0]}}], "kwargs": {}}]}, {"class_name": "Conv2D", "config": {"name": "block1a_se_reduce", "trainable": false, "dtype": {"module": "keras", "class_name": "DTypePolicy", "config": {"name": "mixed_float16"}, "registered_name": null}, "filters": 12, "kernel_size": [1, 1], "strides": [1, 1], "padding": "same", "data_format": "channels_last", "dilation_rate": [1, 1], "groups": 1, "activation": "silu", "use_bias": true, "kernel_initializer": {"module": "keras.initializers", "class_name": "VarianceScaling", "config": {"seed": null, "scale": 2.0, "mode": "fan_out", "distribution": "truncated_normal"}, "registered_name": null}, "bias_initializer": {"module": "keras.initializers", "class_name": "Zeros", "config": {}, "registered_name": null}, "kernel_regularizer": null, "bias_regularizer": null, "activity_regularizer": null, "kernel_constraint": null, "bias_constraint": null}, "name": "block1a_se_reduce", "inbound_nodes": [{"args": [{"class_name": "__keras_tensor__", "config": {"shape": [null, 1, 1, 48], "dtype": "float16", "keras_history": ["block1a_se_reshape", 0, 0]}}], "kwargs": {}}]}, {"class_name": "Conv2D", "config": {"name": "block1a_se_expand", "trainable": false, "dtype": {"module": "keras", "class_name": "DTypePolicy", "config": {"name": "mixed_float16"}, "registered_name": null}, "filters": 48, "kernel_size": [1, 1], "strides": [1, 1], "padding": "same", "data_format": "channels_last", "dilation_rate": [1, 1], "groups": 1, "activation": "sigmoid", "use_bias": true, "kernel_initializer": {"module": "keras.initializers", "class_name": "VarianceScaling", "config": {"seed": null, "scale": 2.0, "mode": "fan_out", "distribution": "truncated_normal"}, "registered_name": null}, "bias_initializer": {"module": "keras.initializers", "class_name": "Zeros", "config": {}, "registered_name": null}, "kernel_regularizer": null, "bias_regularizer": null, "activity_regularizer": null, "kernel_constraint": null, "bias_constraint": null}, "name": "block1a_se_expand", "inbound_nodes": [{"args": [{"class_name": "__keras_tensor__", "config": {"shape": [null, 1, 1, 12], "dtype": "float16", "keras_history": ["block1a_se_reduce", 0, 0]}}], "kwargs": {}}]}, {"class_name": "Multiply", "config": {"name": "block1a_se_excite", "trainable": false, "dtype": {"module": "keras", "class_name": "DTypePolicy", "config": {"name": "mixed_float16"}, "registered_name": null}}, "name": "block1a_se_excite", "inbound_nodes": [{"args": [[{"class_name": "__keras_tensor__", "config": {"shape": [null, 190, 190, 48], "dtype": "float16", "keras_history": ["block1a_activation", 0, 0]}}, {"class_name": "__keras_tensor__", "config": {"shape": [null, 1, 1, 48], "dtype": "float16", "keras_history": ["block1a_se_expand", 0, 0]}}]], "kwargs": {}}]}, {"class_name": "Conv2D", "config": {"name": "block1a_project_conv", "trainable": false, "dtype": {"module": "keras", "class_name": "DTypePolicy", "config": {"name": "mixed_float16"}, "registered_name": null}, "filters": 24, "kernel_size": [1, 1], "strides": [1, 1], "padding": "same", "data_format": "channels_last", "dilation_rate": [1, 1], "groups": 1, "activation": "linear", "use_bias": false, "kernel_initializer": {"module": "keras.initializers", "class_name": "VarianceScaling", "config": {"seed": null, "scale": 2.0, "mode": "fan_out", "distribution": "truncated_normal"}, "registered_name": null}, "bias_initializer": {"module": "keras.initializers", "class_name": "Zeros", "config": {}, "registered_name": null}, "kernel_regularizer": null, "bias_regularizer": null, "activity_regularizer": null, "kernel_constraint": null, "bias_constraint": null}, "name": "block1a_project_conv", "inbound_nodes": [{"args": [{"class_name": "__keras_tensor__", "config": {"shape": [null, 190, 190, 48], "dtype": "float16", "keras_history": ["block1a_se_excite", 0, 0]}}], "kwargs": {}}]}, {"class_name": "BatchNormalization", "config": {"name": "block1a_project_bn", "trainable": false, "dtype": {"module": "keras", "class_name": "DTypePolicy", "config": {"name": "mixed_float16"}, "registered_name": null}, "axis": 3, "momentum": 0.99, "epsilon": 0.001, "center": true, "scale": true, "beta_initializer": {"module": "keras.initializers", "class_name": "Zeros", "config": {}, "registered_name": null}, "gamma_initializer": {"module": "keras.initializers", "class_name": "Ones", "config": {}, "registered_name": null}, "moving_mean_initializer": {"module": "keras.initializers", "class_name": "Zeros", "config": {}, "registered_name": null}, "moving_variance_initializer": {"module": "keras.initializers", "class_name": "Ones", "config": {}, "registered_name": null}, "beta_regularizer": null, "gamma_regularizer": null, "beta_constraint": null, "gamma_constraint": null, "synchronized": false}, "name": "block1a_project_bn", "inbound_nodes": [{"args": [{"class_name": "__keras_tensor__", "config": {"shape": [null, 190, 190, 24], "dtype": "float16", "keras_history": ["block1a_project_conv", 0, 0]}}], "kwargs": {"mask": null}}]}, {"class_name": "DepthwiseConv2D", "config": {"name": "block1b_dwconv", "trainable": false, "dtype": {"module": "keras", "class_name": "DTypePolicy", "config": {"name": "mixed_float16"}, "registered_name": null}, "depth_multiplier": 1, "kernel_size": [3, 3], "strides": [1, 1], "padding": "same", "data_format": "channels_last", "dilation_rate": [1, 1], "activation": "linear", "use_bias": false, "depthwise_initializer": {"module": "keras.initializers", "class_name": "VarianceScaling", "config": {"seed": null, "scale": 2.0, "mode": "fan_out", "distribution": "truncated_normal"}, "registered_name": null}, "bias_initializer": {"module": "keras.initializers", "class_name": "Zeros", "config": {}, "registered_name": null}, "depthwise_regularizer": null, "bias_regularizer": null, "activity_regularizer": null, "depthwise_constraint": null, "bias_constraint": null}, "name": "block1b_dwconv", "inbound_nodes": [{"args": [{"class_name": "__keras_tensor__", "config": {"shape": [null, 190, 190, 24], "dtype": "float16", "keras_history": ["block1a_project_bn", 0, 0]}}], "kwargs": {}}]}, {"class_name": "BatchNormalization", "config": {"name": "block1b_bn", "trainable": false, "dtype": {"module": "keras", "class_name": "DTypePolicy", "config": {"name": "mixed_float16"}, "registered_name": null}, "axis": 3, "momentum": 0.99, "epsilon": 0.001, "center": true, "scale": true, "beta_initializer": {"module": "keras.initializers", "class_name": "Zeros", "config": {}, "registered_name": null}, "gamma_initializer": {"module": "keras.initializers", "class_name": "Ones", "config": {}, "registered_name": null}, "moving_mean_initializer": {"module": "keras.initializers", "class_name": "Zeros", "config": {}, "registered_name": null}, "moving_variance_initializer": {"module": "keras.initializers", "class_name": "Ones", "config": {}, "registered_name": null}, "beta_regularizer": null, "gamma_regularizer": null, "beta_constraint": null, "gamma_constraint": null, "synchronized": false}, "name": "block1b_bn", "inbound_nodes": [{"args": [{"class_name": "__keras_tensor__", "config": {"shape": [null, 190, 190, 24], "dtype": "float16", "keras_history": ["block1b_dwconv", 0, 0]}}], "kwargs": {"mask": null}}]}, {"class_name": "Activation", "config": {"name": "block1b_activation", "trainable": false, "dtype": {"module": "keras", "class_name": "DTypePolicy", "config": {"name": "mixed_float16"}, "registered_name": null}, "activation": "silu"}, "name": "block1b_activation", "inbound_nodes": [{"args": [{"class_name": "__keras_tensor__", "config": {"shape": [null, 190, 190, 24], "dtype": "float16", "keras_history": ["block1b_bn", 0, 0]}}], "kwargs": {}}]}, {"class_name": "GlobalAveragePooling2D", "config": {"name": "block1b_se_squeeze", "trainable": false, "dtype": {"module": "keras", "class_name": "DTypePolicy", "config": {"name": "mixed_float16"}, "registered_name": null}, "data_format": "channels_last", "keepdims": false}, "name": "block1b_se_squeeze", "inbound_nodes": [{"args": [{"class_name": "__keras_tensor__", "config": {"shape": [null, 190, 190, 24], "dtype": "float16", "keras_history": ["block1b_activation", 0, 0]}}], "kwargs": {}}]}, {"class_name": "Reshape", "config": {"name": "block1b_se_reshape", "trainable": false, "dtype": {"module": "keras", "class_name": "DTypePolicy", "config": {"name": "mixed_float16"}, "registered_name": null}, "target_shape": [1, 1, 24]}, "name": "block1b_se_reshape", "inbound_nodes": [{"args": [{"class_name": "__keras_tensor__", "config": {"shape": [null, 24], "dtype": "float16", "keras_history": ["block1b_se_squeeze", 0, 0]}}], "kwargs": {}}]}, {"class_name": "Conv2D", "config": {"name": "block1b_se_reduce", "trainable": false, "dtype": {"module": "keras", "class_name": "DTypePolicy", "config": {"name": "mixed_float16"}, "registered_name": null}, "filters": 6, "kernel_size": [1, 1], "strides": [1, 1], "padding": "same", "data_format": "channels_last", "dilation_rate": [1, 1], "groups": 1, "activation": "silu", "use_bias": true, "kernel_initializer": {"module": "keras.initializers", "class_name": "VarianceScaling", "config": {"seed": null, "scale": 2.0, "mode": "fan_out", "distribution": "truncated_normal"}, "registered_name": null}, "bias_initializer": {"module": "keras.initializers", "class_name": "Zeros", "config": {}, "registered_name": null}, "kernel_regularizer": null, "bias_regularizer": null, "activity_regularizer": null, "kernel_constraint": null, "bias_constraint": null}, "name": "block1b_se_reduce", "inbound_nodes": [{"args": [{"class_name": "__keras_tensor__", "config": {"shape": [null, 1, 1, 24], "dtype": "float16", "keras_history": ["block1b_se_reshape", 0, 0]}}], "kwargs": {}}]}, {"class_name": "Conv2D", "config": {"name": "block1b_se_expand", "trainable": false, "dtype": {"module": "keras", "class_name": "DTypePolicy", "config": {"name": "mixed_float16"}, "registered_name": null}, "filters": 24, "kernel_size": [1, 1], "strides": [1, 1], "padding": "same", "data_format": "channels_last", "dilation_rate": [1, 1], "groups": 1, "activation": "sigmoid", "use_bias": true, "kernel_initializer": {"module": "keras.initializers", "class_name": "VarianceScaling", "config": {"seed": null, "scale": 2.0, "mode": "fan_out", "distribution": "truncated_normal"}, "registered_name": null}, "bias_initializer": {"module": "keras.initializers", "class_name": "Zeros", "config": {}, "registered_name": null}, "kernel_regularizer": null, "bias_regularizer": null, "activity_regularizer": null, "kernel_constraint": null, "bias_constraint": null}, "name": "block1b_se_expand", "inbound_nodes": [{"args": [{"class_name": "__keras_tensor__", "config": {"shape": [null, 1, 1, 6], "dtype": "float16", "keras_history": ["block1b_se_reduce", 0, 0]}}], "kwargs": {}}]}, {"class_name": "Multiply", "config": {"name": "block1b_se_excite", "trainable": false, "dtype": {"module": "keras", "class_name": "DTypePolicy", "config": {"name": "mixed_float16"}, "registered_name": null}}, "name": "block1b_se_excite", "inbound_nodes": [{"args": [[{"class_name": "__keras_tensor__", "config": {"shape": [null, 190, 190, 24], "dtype": "float16", "keras_history": ["block1b_activation", 0, 0]}}, {"class_name": "__keras_tensor__", "config": {"shape": [null, 1, 1, 24], "dtype": "float16", "keras_history": ["block1b_se_expand", 0, 0]}}]], "kwargs": {}}]}, {"class_name": "Conv2D", "config": {"name": "block1b_project_conv", "trainable": false, "dtype": {"module": "keras", "class_name": "DTypePolicy", "config": {"name": "mixed_float16"}, "registered_name": null}, "filters": 24, "kernel_size": [1, 1], "strides": [1, 1], "padding": "same", "data_format": "channels_last", "dilation_rate": [1, 1], "groups": 1, "activation": "linear", "use_bias": false, "kernel_initializer": {"module": "keras.initializers", "class_name": "VarianceScaling", "config": {"seed": null, "scale": 2.0, "mode": "fan_out", "distribution": "truncated_normal"}, "registered_name": null}, "bias_initializer": {"module": "keras.initializers", "class_name": "Zeros", "config": {}, "registered_name": null}, "kernel_regularizer": null, "bias_regularizer": null, "activity_regularizer": null, "kernel_constraint": null, "bias_constraint": null}, "name": "block1b_project_conv", "inbound_nodes": [{"args": [{"class_name": "__keras_tensor__", "config": {"shape": [null, 190, 190, 24], "dtype": "float16", "keras_history": ["block1b_se_excite", 0, 0]}}], "kwargs": {}}]}, {"class_name": "BatchNormalization", "config": {"name": "block1b_project_bn", "trainable": false, "dtype": {"module": "keras", "class_name": "DTypePolicy", "config": {"name": "mixed_float16"}, "registered_name": null}, "axis": 3, "momentum": 0.99, "epsilon": 0.001, "center": true, "scale": true, "beta_initializer": {"module": "keras.initializers", "class_name": "Zeros", "config": {}, "registered_name": null}, "gamma_initializer": {"module": "keras.initializers", "class_name": "Ones", "config": {}, "registered_name": null}, "moving_mean_initializer": {"module": "keras.initializers", "class_name": "Zeros", "config": {}, "registered_name": null}, "moving_variance_initializer": {"module": "keras.initializers", "class_name": "Ones", "config": {}, "registered_name": null}, "beta_regularizer": null, "gamma_regularizer": null, "beta_constraint": null, "gamma_constraint": null, "synchronized": false}, "name": "block1b_project_bn", "inbound_nodes": [{"args": [{"class_name": "__keras_tensor__", "config": {"shape": [null, 190, 190, 24], "dtype": "float16", "keras_history": ["block1b_project_conv", 0, 0]}}], "kwargs": {"mask": null}}]}, {"class_name": "Dropout", "config": {"name": "block1b_drop", "trainable": false, "dtype": {"module": "keras", "class_name": "DTypePolicy", "config": {"name": "mixed_float16"}, "registered_name": null}, "rate": 0.00625, "seed": null, "noise_shape": [null, 1, 1, 1]}, "name": "block1b_drop", "inbound_nodes": [{"args": [{"class_name": "__keras_tensor__", "config": {"shape": [null, 190, 190, 24], "dtype": "float16", "keras_history": ["block1b_project_bn", 0, 0]}}], "kwargs": {"training": false}}]}, {"class_name": "Add", "config": {"name": "block1b_add", "trainable": false, "dtype": {"module": "keras", "class_name": "DTypePolicy", "config": {"name": "mixed_float16"}, "registered_name": null}}, "name": "block1b_add", "inbound_nodes": [{"args": [[{"class_name": "__keras_tensor__", "config": {"shape": [null, 190, 190, 24], "dtype": "float16", "keras_history": ["block1b_drop", 0, 0]}}, {"class_name": "__keras_tensor__", "config": {"shape": [null, 190, 190, 24], "dtype": "float16", "keras_history": ["block1a_project_bn", 0, 0]}}]], "kwargs": {}}]}, {"class_name": "Conv2D", "config": {"name": "block2a_expand_conv", "trainable": false, "dtype": {"module": "keras", "class_name": "DTypePolicy", "config": {"name": "mixed_float16"}, "registered_name": null}, "filters": 144, "kernel_size": [1, 1], "strides": [1, 1], "padding": "same", "data_format": "channels_last", "dilation_rate": [1, 1], "groups": 1, "activation": "linear", "use_bias": false, "kernel_initializer": {"module": "keras.initializers", "class_name": "VarianceScaling", "config": {"seed": null, "scale": 2.0, "mode": "fan_out", "distribution": "truncated_normal"}, "registered_name": null}, "bias_initializer": {"module": "keras.initializers", "class_name": "Zeros", "config": {}, "registered_name": null}, "kernel_regularizer": null, "bias_regularizer": null, "activity_regularizer": null, "kernel_constraint": null, "bias_constraint": null}, "name": "block2a_expand_conv", "inbound_nodes": [{"args": [{"class_name": "__keras_tensor__", "config": {"shape": [null, 190, 190, 24], "dtype": "float16", "keras_history": ["block1b_add", 0, 0]}}], "kwargs": {}}]}, {"class_name": "BatchNormalization", "config": {"name": "block2a_expand_bn", "trainable": false, "dtype": {"module": "keras", "class_name": "DTypePolicy", "config": {"name": "mixed_float16"}, "registered_name": null}, "axis": 3, "momentum": 0.99, "epsilon": 0.001, "center": true, "scale": true, "beta_initializer": {"module": "keras.initializers", "class_name": "Zeros", "config": {}, "registered_name": null}, "gamma_initializer": {"module": "keras.initializers", "class_name": "Ones", "config": {}, "registered_name": null}, "moving_mean_initializer": {"module": "keras.initializers", "class_name": "Zeros", "config": {}, "registered_name": null}, "moving_variance_initializer": {"module": "keras.initializers", "class_name": "Ones", "config": {}, "registered_name": null}, "beta_regularizer": null, "gamma_regularizer": null, "beta_constraint": null, "gamma_constraint": null, "synchronized": false}, "name": "block2a_expand_bn", "inbound_nodes": [{"args": [{"class_name": "__keras_tensor__", "config": {"shape": [null, 190, 190, 144], "dtype": "float16", "keras_history": ["block2a_expand_conv", 0, 0]}}], "kwargs": {"mask": null}}]}, {"class_name": "Activation", "config": {"name": "block2a_expand_activation", "trainable": false, "dtype": {"module": "keras", "class_name": "DTypePolicy", "config": {"name": "mixed_float16"}, "registered_name": null}, "activation": "silu"}, "name": "block2a_expand_activation", "inbound_nodes": [{"args": [{"class_name": "__keras_tensor__", "config": {"shape": [null, 190, 190, 144], "dtype": "float16", "keras_history": ["block2a_expand_bn", 0, 0]}}], "kwargs": {}}]}, {"class_name": "ZeroPadding2D", "config": {"name": "block2a_dwconv_pad", "trainable": false, "dtype": {"module": "keras", "class_name": "DTypePolicy", "config": {"name": "mixed_float16"}, "registered_name": null}, "padding": [[0, 1], [0, 1]], "data_format": "channels_last"}, "name": "block2a_dwconv_pad", "inbound_nodes": [{"args": [{"class_name": "__keras_tensor__", "config": {"shape": [null, 190, 190, 144], "dtype": "float16", "keras_history": ["block2a_expand_activation", 0, 0]}}], "kwargs": {}}]}, {"class_name": "DepthwiseConv2D", "config": {"name": "block2a_dwconv", "trainable": false, "dtype": {"module": "keras", "class_name": "DTypePolicy", "config": {"name": "mixed_float16"}, "registered_name": null}, "depth_multiplier": 1, "kernel_size": [3, 3], "strides": [2, 2], "padding": "valid", "data_format": "channels_last", "dilation_rate": [1, 1], "activation": "linear", "use_bias": false, "depthwise_initializer": {"module": "keras.initializers", "class_name": "VarianceScaling", "config": {"seed": null, "scale": 2.0, "mode": "fan_out", "distribution": "truncated_normal"}, "registered_name": null}, "bias_initializer": {"module": "keras.initializers", "class_name": "Zeros", "config": {}, "registered_name": null}, "depthwise_regularizer": null, "bias_regularizer": null, "activity_regularizer": null, "depthwise_constraint": null, "bias_constraint": null}, "name": "block2a_dwconv", "inbound_nodes": [{"args": [{"class_name": "__keras_tensor__", "config": {"shape": [null, 191, 191, 144], "dtype": "float16", "keras_history": ["block2a_dwconv_pad", 0, 0]}}], "kwargs": {}}]}, {"class_name": "BatchNormalization", "config": {"name": "block2a_bn", "trainable": false, "dtype": {"module": "keras", "class_name": "DTypePolicy", "config": {"name": "mixed_float16"}, "registered_name": null}, "axis": 3, "momentum": 0.99, "epsilon": 0.001, "center": true, "scale": true, "beta_initializer": {"module": "keras.initializers", "class_name": "Zeros", "config": {}, "registered_name": null}, "gamma_initializer": {"module": "keras.initializers", "class_name": "Ones", "config": {}, "registered_name": null}, "moving_mean_initializer": {"module": "keras.initializers", "class_name": "Zeros", "config": {}, "registered_name": null}, "moving_variance_initializer": {"module": "keras.initializers", "class_name": "Ones", "config": {}, "registered_name": null}, "beta_regularizer": null, "gamma_regularizer": null, "beta_constraint": null, "gamma_constraint": null, "synchronized": false}, "name": "block2a_bn", "inbound_nodes": [{"args": [{"class_name": "__keras_tensor__", "config": {"shape": [null, 95, 95, 144], "dtype": "float16", "keras_history": ["block2a_dwconv", 0, 0]}}], "kwargs": {"mask": null}}]}, {"class_name": "Activation", "config": {"name": "block2a_activation", "trainable": false, "dtype": {"module": "keras", "class_name": "DTypePolicy", "config": {"name": "mixed_float16"}, "registered_name": null}, "activation": "silu"}, "name": "block2a_activation", "inbound_nodes": [{"args": [{"class_name": "__keras_tensor__", "config": {"shape": [null, 95, 95, 144], "dtype": "float16", "keras_history": ["block2a_bn", 0, 0]}}], "kwargs": {}}]}, {"class_name": "GlobalAveragePooling2D", "config": {"name": "block2a_se_squeeze", "trainable": false, "dtype": {"module": "keras", "class_name": "DTypePolicy", "config": {"name": "mixed_float16"}, "registered_name": null}, "data_format": "channels_last", "keepdims": false}, "name": "block2a_se_squeeze", "inbound_nodes": [{"args": [{"class_name": "__keras_tensor__", "config": {"shape": [null, 95, 95, 144], "dtype": "float16", "keras_history": ["block2a_activation", 0, 0]}}], "kwargs": {}}]}, {"class_name": "Reshape", "config": {"name": "block2a_se_reshape", "trainable": false, "dtype": {"module": "keras", "class_name": "DTypePolicy", "config": {"name": "mixed_float16"}, "registered_name": null}, "target_shape": [1, 1, 144]}, "name": "block2a_se_reshape", "inbound_nodes": [{"args": [{"class_name": "__keras_tensor__", "config": {"shape": [null, 144], "dtype": "float16", "keras_history": ["block2a_se_squeeze", 0, 0]}}], "kwargs": {}}]}, {"class_name": "Conv2D", "config": {"name": "block2a_se_reduce", "trainable": false, "dtype": {"module": "keras", "class_name": "DTypePolicy", "config": {"name": "mixed_float16"}, "registered_name": null}, "filters": 6, "kernel_size": [1, 1], "strides": [1, 1], "padding": "same", "data_format": "channels_last", "dilation_rate": [1, 1], "groups": 1, "activation": "silu", "use_bias": true, "kernel_initializer": {"module": "keras.initializers", "class_name": "VarianceScaling", "config": {"seed": null, "scale": 2.0, "mode": "fan_out", "distribution": "truncated_normal"}, "registered_name": null}, "bias_initializer": {"module": "keras.initializers", "class_name": "Zeros", "config": {}, "registered_name": null}, "kernel_regularizer": null, "bias_regularizer": null, "activity_regularizer": null, "kernel_constraint": null, "bias_constraint": null}, "name": "block2a_se_reduce", "inbound_nodes": [{"args": [{"class_name": "__keras_tensor__", "config": {"shape": [null, 1, 1, 144], "dtype": "float16", "keras_history": ["block2a_se_reshape", 0, 0]}}], "kwargs": {}}]}, {"class_name": "Conv2D", "config": {"name": "block2a_se_expand", "trainable": false, "dtype": {"module": "keras", "class_name": "DTypePolicy", "config": {"name": "mixed_float16"}, "registered_name": null}, "filters": 144, "kernel_size": [1, 1], "strides": [1, 1], "padding": "same", "data_format": "channels_last", "dilation_rate": [1, 1], "groups": 1, "activation": "sigmoid", "use_bias": true, "kernel_initializer": {"module": "keras.initializers", "class_name": "VarianceScaling", "config": {"seed": null, "scale": 2.0, "mode": "fan_out", "distribution": "truncated_normal"}, "registered_name": null}, "bias_initializer": {"module": "keras.initializers", "class_name": "Zeros", "config": {}, "registered_name": null}, "kernel_regularizer": null, "bias_regularizer": null, "activity_regularizer": null, "kernel_constraint": null, "bias_constraint": null}, "name": "block2a_se_expand", "inbound_nodes": [{"args": [{"class_name": "__keras_tensor__", "config": {"shape": [null, 1, 1, 6], "dtype": "float16", "keras_history": ["block2a_se_reduce", 0, 0]}}], "kwargs": {}}]}, {"class_name": "Multiply", "config": {"name": "block2a_se_excite", "trainable": false, "dtype": {"module": "keras", "class_name": "DTypePolicy", "config": {"name": "mixed_float16"}, "registered_name": null}}, "name": "block2a_se_excite", "inbound_nodes": [{"args": [[{"class_name": "__keras_tensor__", "config": {"shape": [null, 95, 95, 144], "dtype": "float16", "keras_history": ["block2a_activation", 0, 0]}}, {"class_name": "__keras_tensor__", "config": {"shape": [null, 1, 1, 144], "dtype": "float16", "keras_history": ["block2a_se_expand", 0, 0]}}]], "kwargs": {}}]}, {"class_name": "Conv2D", "config": {"name": "block2a_project_conv", "trainable": false, "dtype": {"module": "keras", "class_name": "DTypePolicy", "config": {"name": "mixed_float16"}, "registered_name": null}, "filters": 32, "kernel_size": [1, 1], "strides": [1, 1], "padding": "same", "data_format": "channels_last", "dilation_rate": [1, 1], "groups": 1, "activation": "linear", "use_bias": false, "kernel_initializer": {"module": "keras.initializers", "class_name": "VarianceScaling", "config": {"seed": null, "scale": 2.0, "mode": "fan_out", "distribution": "truncated_normal"}, "registered_name": null}, "bias_initializer": {"module": "keras.initializers", "class_name": "Zeros", "config": {}, "registered_name": null}, "kernel_regularizer": null, "bias_regularizer": null, "activity_regularizer": null, "kernel_constraint": null, "bias_constraint": null}, "name": "block2a_project_conv", "inbound_nodes": [{"args": [{"class_name": "__keras_tensor__", "config": {"shape": [null, 95, 95, 144], "dtype": "float16", "keras_history": ["block2a_se_excite", 0, 0]}}], "kwargs": {}}]}, {"class_name": "BatchNormalization", "config": {"name": "block2a_project_bn", "trainable": false, "dtype": {"module": "keras", "class_name": "DTypePolicy", "config": {"name": "mixed_float16"}, "registered_name": null}, "axis": 3, "momentum": 0.99, "epsilon": 0.001, "center": true, "scale": true, "beta_initializer": {"module": "keras.initializers", "class_name": "Zeros", "config": {}, "registered_name": null}, "gamma_initializer": {"module": "keras.initializers", "class_name": "Ones", "config": {}, "registered_name": null}, "moving_mean_initializer": {"module": "keras.initializers", "class_name": "Zeros", "config": {}, "registered_name": null}, "moving_variance_initializer": {"module": "keras.initializers", "class_name": "Ones", "config": {}, "registered_name": null}, "beta_regularizer": null, "gamma_regularizer": null, "beta_constraint": null, "gamma_constraint": null, "synchronized": false}, "name": "block2a_project_bn", "inbound_nodes": [{"args": [{"class_name": "__keras_tensor__", "config": {"shape": [null, 95, 95, 32], "dtype": "float16", "keras_history": ["block2a_project_conv", 0, 0]}}], "kwargs": {"mask": null}}]}, {"class_name": "Conv2D", "config": {"name": "block2b_expand_conv", "trainable": false, "dtype": {"module": "keras", "class_name": "DTypePolicy", "config": {"name": "mixed_float16"}, "registered_name": null}, "filters": 192, "kernel_size": [1, 1], "strides": [1, 1], "padding": "same", "data_format": "channels_last", "dilation_rate": [1, 1], "groups": 1, "activation": "linear", "use_bias": false, "kernel_initializer": {"module": "keras.initializers", "class_name": "VarianceScaling", "config": {"seed": null, "scale": 2.0, "mode": "fan_out", "distribution": "truncated_normal"}, "registered_name": null}, "bias_initializer": {"module": "keras.initializers", "class_name": "Zeros", "config": {}, "registered_name": null}, "kernel_regularizer": null, "bias_regularizer": null, "activity_regularizer": null, "kernel_constraint": null, "bias_constraint": null}, "name": "block2b_expand_conv", "inbound_nodes": [{"args": [{"class_name": "__keras_tensor__", "config": {"shape": [null, 95, 95, 32], "dtype": "float16", "keras_history": ["block2a_project_bn", 0, 0]}}], "kwargs": {}}]}, {"class_name": "BatchNormalization", "config": {"name": "block2b_expand_bn", "trainable": false, "dtype": {"module": "keras", "class_name": "DTypePolicy", "config": {"name": "mixed_float16"}, "registered_name": null}, "axis": 3, "momentum": 0.99, "epsilon": 0.001, "center": true, "scale": true, "beta_initializer": {"module": "keras.initializers", "class_name": "Zeros", "config": {}, "registered_name": null}, "gamma_initializer": {"module": "keras.initializers", "class_name": "Ones", "config": {}, "registered_name": null}, "moving_mean_initializer": {"module": "keras.initializers", "class_name": "Zeros", "config": {}, "registered_name": null}, "moving_variance_initializer": {"module": "keras.initializers", "class_name": "Ones", "config": {}, "registered_name": null}, "beta_regularizer": null, "gamma_regularizer": null, "beta_constraint": null, "gamma_constraint": null, "synchronized": false}, "name": "block2b_expand_bn", "inbound_nodes": [{"args": [{"class_name": "__keras_tensor__", "config": {"shape": [null, 95, 95, 192], "dtype": "float16", "keras_history": ["block2b_expand_conv", 0, 0]}}], "kwargs": {"mask": null}}]}, {"class_name": "Activation", "config": {"name": "block2b_expand_activation", "trainable": false, "dtype": {"module": "keras", "class_name": "DTypePolicy", "config": {"name": "mixed_float16"}, "registered_name": null}, "activation": "silu"}, "name": "block2b_expand_activation", "inbound_nodes": [{"args": [{"class_name": "__keras_tensor__", "config": {"shape": [null, 95, 95, 192], "dtype": "float16", "keras_history": ["block2b_expand_bn", 0, 0]}}], "kwargs": {}}]}, {"class_name": "DepthwiseConv2D", "config": {"name": "block2b_dwconv", "trainable": false, "dtype": {"module": "keras", "class_name": "DTypePolicy", "config": {"name": "mixed_float16"}, "registered_name": null}, "depth_multiplier": 1, "kernel_size": [3, 3], "strides": [1, 1], "padding": "same", "data_format": "channels_last", "dilation_rate": [1, 1], "activation": "linear", "use_bias": false, "depthwise_initializer": {"module": "keras.initializers", "class_name": "VarianceScaling", "config": {"seed": null, "scale": 2.0, "mode": "fan_out", "distribution": "truncated_normal"}, "registered_name": null}, "bias_initializer": {"module": "keras.initializers", "class_name": "Zeros", "config": {}, "registered_name": null}, "depthwise_regularizer": null, "bias_regularizer": null, "activity_regularizer": null, "depthwise_constraint": null, "bias_constraint": null}, "name": "block2b_dwconv", "inbound_nodes": [{"args": [{"class_name": "__keras_tensor__", "config": {"shape": [null, 95, 95, 192], "dtype": "float16", "keras_history": ["block2b_expand_activation", 0, 0]}}], "kwargs": {}}]}, {"class_name": "BatchNormalization", "config": {"name": "block2b_bn", "trainable": false, "dtype": {"module": "keras", "class_name": "DTypePolicy", "config": {"name": "mixed_float16"}, "registered_name": null}, "axis": 3, "momentum": 0.99, "epsilon": 0.001, "center": true, "scale": true, "beta_initializer": {"module": "keras.initializers", "class_name": "Zeros", "config": {}, "registered_name": null}, "gamma_initializer": {"module": "keras.initializers", "class_name": "Ones", "config": {}, "registered_name": null}, "moving_mean_initializer": {"module": "keras.initializers", "class_name": "Zeros", "config": {}, "registered_name": null}, "moving_variance_initializer": {"module": "keras.initializers", "class_name": "Ones", "config": {}, "registered_name": null}, "beta_regularizer": null, "gamma_regularizer": null, "beta_constraint": null, "gamma_constraint": null, "synchronized": false}, "name": "block2b_bn", "inbound_nodes": [{"args": [{"class_name": "__keras_tensor__", "config": {"shape": [null, 95, 95, 192], "dtype": "float16", "keras_history": ["block2b_dwconv", 0, 0]}}], "kwargs": {"mask": null}}]}, {"class_name": "Activation", "config": {"name": "block2b_activation", "trainable": false, "dtype": {"module": "keras", "class_name": "DTypePolicy", "config": {"name": "mixed_float16"}, "registered_name": null}, "activation": "silu"}, "name": "block2b_activation", "inbound_nodes": [{"args": [{"class_name": "__keras_tensor__", "config": {"shape": [null, 95, 95, 192], "dtype": "float16", "keras_history": ["block2b_bn", 0, 0]}}], "kwargs": {}}]}, {"class_name": "GlobalAveragePooling2D", "config": {"name": "block2b_se_squeeze", "trainable": false, "dtype": {"module": "keras", "class_name": "DTypePolicy", "config": {"name": "mixed_float16"}, "registered_name": null}, "data_format": "channels_last", "keepdims": false}, "name": "block2b_se_squeeze", "inbound_nodes": [{"args": [{"class_name": "__keras_tensor__", "config": {"shape": [null, 95, 95, 192], "dtype": "float16", "keras_history": ["block2b_activation", 0, 0]}}], "kwargs": {}}]}, {"class_name": "Reshape", "config": {"name": "block2b_se_reshape", "trainable": false, "dtype": {"module": "keras", "class_name": "DTypePolicy", "config": {"name": "mixed_float16"}, "registered_name": null}, "target_shape": [1, 1, 192]}, "name": "block2b_se_reshape", "inbound_nodes": [{"args": [{"class_name": "__keras_tensor__", "config": {"shape": [null, 192], "dtype": "float16", "keras_history": ["block2b_se_squeeze", 0, 0]}}], "kwargs": {}}]}, {"class_name": "Conv2D", "config": {"name": "block2b_se_reduce", "trainable": false, "dtype": {"module": "keras", "class_name": "DTypePolicy", "config": {"name": "mixed_float16"}, "registered_name": null}, "filters": 8, "kernel_size": [1, 1], "strides": [1, 1], "padding": "same", "data_format": "channels_last", "dilation_rate": [1, 1], "groups": 1, "activation": "silu", "use_bias": true, "kernel_initializer": {"module": "keras.initializers", "class_name": "VarianceScaling", "config": {"seed": null, "scale": 2.0, "mode": "fan_out", "distribution": "truncated_normal"}, "registered_name": null}, "bias_initializer": {"module": "keras.initializers", "class_name": "Zeros", "config": {}, "registered_name": null}, "kernel_regularizer": null, "bias_regularizer": null, "activity_regularizer": null, "kernel_constraint": null, "bias_constraint": null}, "name": "block2b_se_reduce", "inbound_nodes": [{"args": [{"class_name": "__keras_tensor__", "config": {"shape": [null, 1, 1, 192], "dtype": "float16", "keras_history": ["block2b_se_reshape", 0, 0]}}], "kwargs": {}}]}, {"class_name": "Conv2D", "config": {"name": "block2b_se_expand", "trainable": false, "dtype": {"module": "keras", "class_name": "DTypePolicy", "config": {"name": "mixed_float16"}, "registered_name": null}, "filters": 192, "kernel_size": [1, 1], "strides": [1, 1], "padding": "same", "data_format": "channels_last", "dilation_rate": [1, 1], "groups": 1, "activation": "sigmoid", "use_bias": true, "kernel_initializer": {"module": "keras.initializers", "class_name": "VarianceScaling", "config": {"seed": null, "scale": 2.0, "mode": "fan_out", "distribution": "truncated_normal"}, "registered_name": null}, "bias_initializer": {"module": "keras.initializers", "class_name": "Zeros", "config": {}, "registered_name": null}, "kernel_regularizer": null, "bias_regularizer": null, "activity_regularizer": null, "kernel_constraint": null, "bias_constraint": null}, "name": "block2b_se_expand", "inbound_nodes": [{"args": [{"class_name": "__keras_tensor__", "config": {"shape": [null, 1, 1, 8], "dtype": "float16", "keras_history": ["block2b_se_reduce", 0, 0]}}], "kwargs": {}}]}, {"class_name": "Multiply", "config": {"name": "block2b_se_excite", "trainable": false, "dtype": {"module": "keras", "class_name": "DTypePolicy", "config": {"name": "mixed_float16"}, "registered_name": null}}, "name": "block2b_se_excite", "inbound_nodes": [{"args": [[{"class_name": "__keras_tensor__", "config": {"shape": [null, 95, 95, 192], "dtype": "float16", "keras_history": ["block2b_activation", 0, 0]}}, {"class_name": "__keras_tensor__", "config": {"shape": [null, 1, 1, 192], "dtype": "float16", "keras_history": ["block2b_se_expand", 0, 0]}}]], "kwargs": {}}]}, {"class_name": "Conv2D", "config": {"name": "block2b_project_conv", "trainable": false, "dtype": {"module": "keras", "class_name": "DTypePolicy", "config": {"name": "mixed_float16"}, "registered_name": null}, "filters": 32, "kernel_size": [1, 1], "strides": [1, 1], "padding": "same", "data_format": "channels_last", "dilation_rate": [1, 1], "groups": 1, "activation": "linear", "use_bias": false, "kernel_initializer": {"module": "keras.initializers", "class_name": "VarianceScaling", "config": {"seed": null, "scale": 2.0, "mode": "fan_out", "distribution": "truncated_normal"}, "registered_name": null}, "bias_initializer": {"module": "keras.initializers", "class_name": "Zeros", "config": {}, "registered_name": null}, "kernel_regularizer": null, "bias_regularizer": null, "activity_regularizer": null, "kernel_constraint": null, "bias_constraint": null}, "name": "block2b_project_conv", "inbound_nodes": [{"args": [{"class_name": "__keras_tensor__", "config": {"shape": [null, 95, 95, 192], "dtype": "float16", "keras_history": ["block2b_se_excite", 0, 0]}}], "kwargs": {}}]}, {"class_name": "BatchNormalization", "config": {"name": "block2b_project_bn", "trainable": false, "dtype": {"module": "keras", "class_name": "DTypePolicy", "config": {"name": "mixed_float16"}, "registered_name": null}, "axis": 3, "momentum": 0.99, "epsilon": 0.001, "center": true, "scale": true, "beta_initializer": {"module": "keras.initializers", "class_name": "Zeros", "config": {}, "registered_name": null}, "gamma_initializer": {"module": "keras.initializers", "class_name": "Ones", "config": {}, "registered_name": null}, "moving_mean_initializer": {"module": "keras.initializers", "class_name": "Zeros", "config": {}, "registered_name": null}, "moving_variance_initializer": {"module": "keras.initializers", "class_name": "Ones", "config": {}, "registered_name": null}, "beta_regularizer": null, "gamma_regularizer": null, "beta_constraint": null, "gamma_constraint": null, "synchronized": false}, "name": "block2b_project_bn", "inbound_nodes": [{"args": [{"class_name": "__keras_tensor__", "config": {"shape": [null, 95, 95, 32], "dtype": "float16", "keras_history": ["block2b_project_conv", 0, 0]}}], "kwargs": {"mask": null}}]}, {"class_name": "Dropout", "config": {"name": "block2b_drop", "trainable": false, "dtype": {"module": "keras", "class_name": "DTypePolicy", "config": {"name": "mixed_float16"}, "registered_name": null}, "rate": 0.018750000000000003, "seed": null, "noise_shape": [null, 1, 1, 1]}, "name": "block2b_drop", "inbound_nodes": [{"args": [{"class_name": "__keras_tensor__", "config": {"shape": [null, 95, 95, 32], "dtype": "float16", "keras_history": ["block2b_project_bn", 0, 0]}}], "kwargs": {"training": false}}]}, {"class_name": "Add", "config": {"name": "block2b_add", "trainable": false, "dtype": {"module": "keras", "class_name": "DTypePolicy", "config": {"name": "mixed_float16"}, "registered_name": null}}, "name": "block2b_add", "inbound_nodes": [{"args": [[{"class_name": "__keras_tensor__", "config": {"shape": [null, 95, 95, 32], "dtype": "float16", "keras_history": ["block2b_drop", 0, 0]}}, {"class_name": "__keras_tensor__", "config": {"shape": [null, 95, 95, 32], "dtype": "float16", "keras_history": ["block2a_project_bn", 0, 0]}}]], "kwargs": {}}]}, {"class_name": "Conv2D", "config": {"name": "block2c_expand_conv", "trainable": false, "dtype": {"module": "keras", "class_name": "DTypePolicy", "config": {"name": "mixed_float16"}, "registered_name": null}, "filters": 192, "kernel_size": [1, 1], "strides": [1, 1], "padding": "same", "data_format": "channels_last", "dilation_rate": [1, 1], "groups": 1, "activation": "linear", "use_bias": false, "kernel_initializer": {"module": "keras.initializers", "class_name": "VarianceScaling", "config": {"seed": null, "scale": 2.0, "mode": "fan_out", "distribution": "truncated_normal"}, "registered_name": null}, "bias_initializer": {"module": "keras.initializers", "class_name": "Zeros", "config": {}, "registered_name": null}, "kernel_regularizer": null, "bias_regularizer": null, "activity_regularizer": null, "kernel_constraint": null, "bias_constraint": null}, "name": "block2c_expand_conv", "inbound_nodes": [{"args": [{"class_name": "__keras_tensor__", "config": {"shape": [null, 95, 95, 32], "dtype": "float16", "keras_history": ["block2b_add", 0, 0]}}], "kwargs": {}}]}, {"class_name": "BatchNormalization", "config": {"name": "block2c_expand_bn", "trainable": false, "dtype": {"module": "keras", "class_name": "DTypePolicy", "config": {"name": "mixed_float16"}, "registered_name": null}, "axis": 3, "momentum": 0.99, "epsilon": 0.001, "center": true, "scale": true, "beta_initializer": {"module": "keras.initializers", "class_name": "Zeros", "config": {}, "registered_name": null}, "gamma_initializer": {"module": "keras.initializers", "class_name": "Ones", "config": {}, "registered_name": null}, "moving_mean_initializer": {"module": "keras.initializers", "class_name": "Zeros", "config": {}, "registered_name": null}, "moving_variance_initializer": {"module": "keras.initializers", "class_name": "Ones", "config": {}, "registered_name": null}, "beta_regularizer": null, "gamma_regularizer": null, "beta_constraint": null, "gamma_constraint": null, "synchronized": false}, "name": "block2c_expand_bn", "inbound_nodes": [{"args": [{"class_name": "__keras_tensor__", "config": {"shape": [null, 95, 95, 192], "dtype": "float16", "keras_history": ["block2c_expand_conv", 0, 0]}}], "kwargs": {"mask": null}}]}, {"class_name": "Activation", "config": {"name": "block2c_expand_activation", "trainable": false, "dtype": {"module": "keras", "class_name": "DTypePolicy", "config": {"name": "mixed_float16"}, "registered_name": null}, "activation": "silu"}, "name": "block2c_expand_activation", "inbound_nodes": [{"args": [{"class_name": "__keras_tensor__", "config": {"shape": [null, 95, 95, 192], "dtype": "float16", "keras_history": ["block2c_expand_bn", 0, 0]}}], "kwargs": {}}]}, {"class_name": "DepthwiseConv2D", "config": {"name": "block2c_dwconv", "trainable": false, "dtype": {"module": "keras", "class_name": "DTypePolicy", "config": {"name": "mixed_float16"}, "registered_name": null}, "depth_multiplier": 1, "kernel_size": [3, 3], "strides": [1, 1], "padding": "same", "data_format": "channels_last", "dilation_rate": [1, 1], "activation": "linear", "use_bias": false, "depthwise_initializer": {"module": "keras.initializers", "class_name": "VarianceScaling", "config": {"seed": null, "scale": 2.0, "mode": "fan_out", "distribution": "truncated_normal"}, "registered_name": null}, "bias_initializer": {"module": "keras.initializers", "class_name": "Zeros", "config": {}, "registered_name": null}, "depthwise_regularizer": null, "bias_regularizer": null, "activity_regularizer": null, "depthwise_constraint": null, "bias_constraint": null}, "name": "block2c_dwconv", "inbound_nodes": [{"args": [{"class_name": "__keras_tensor__", "config": {"shape": [null, 95, 95, 192], "dtype": "float16", "keras_history": ["block2c_expand_activation", 0, 0]}}], "kwargs": {}}]}, {"class_name": "BatchNormalization", "config": {"name": "block2c_bn", "trainable": false, "dtype": {"module": "keras", "class_name": "DTypePolicy", "config": {"name": "mixed_float16"}, "registered_name": null}, "axis": 3, "momentum": 0.99, "epsilon": 0.001, "center": true, "scale": true, "beta_initializer": {"module": "keras.initializers", "class_name": "Zeros", "config": {}, "registered_name": null}, "gamma_initializer": {"module": "keras.initializers", "class_name": "Ones", "config": {}, "registered_name": null}, "moving_mean_initializer": {"module": "keras.initializers", "class_name": "Zeros", "config": {}, "registered_name": null}, "moving_variance_initializer": {"module": "keras.initializers", "class_name": "Ones", "config": {}, "registered_name": null}, "beta_regularizer": null, "gamma_regularizer": null, "beta_constraint": null, "gamma_constraint": null, "synchronized": false}, "name": "block2c_bn", "inbound_nodes": [{"args": [{"class_name": "__keras_tensor__", "config": {"shape": [null, 95, 95, 192], "dtype": "float16", "keras_history": ["block2c_dwconv", 0, 0]}}], "kwargs": {"mask": null}}]}, {"class_name": "Activation", "config": {"name": "block2c_activation", "trainable": false, "dtype": {"module": "keras", "class_name": "DTypePolicy", "config": {"name": "mixed_float16"}, "registered_name": null}, "activation": "silu"}, "name": "block2c_activation", "inbound_nodes": [{"args": [{"class_name": "__keras_tensor__", "config": {"shape": [null, 95, 95, 192], "dtype": "float16", "keras_history": ["block2c_bn", 0, 0]}}], "kwargs": {}}]}, {"class_name": "GlobalAveragePooling2D", "config": {"name": "block2c_se_squeeze", "trainable": false, "dtype": {"module": "keras", "class_name": "DTypePolicy", "config": {"name": "mixed_float16"}, "registered_name": null}, "data_format": "channels_last", "keepdims": false}, "name": "block2c_se_squeeze", "inbound_nodes": [{"args": [{"class_name": "__keras_tensor__", "config": {"shape": [null, 95, 95, 192], "dtype": "float16", "keras_history": ["block2c_activation", 0, 0]}}], "kwargs": {}}]}, {"class_name": "Reshape", "config": {"name": "block2c_se_reshape", "trainable": false, "dtype": {"module": "keras", "class_name": "DTypePolicy", "config": {"name": "mixed_float16"}, "registered_name": null}, "target_shape": [1, 1, 192]}, "name": "block2c_se_reshape", "inbound_nodes": [{"args": [{"class_name": "__keras_tensor__", "config": {"shape": [null, 192], "dtype": "float16", "keras_history": ["block2c_se_squeeze", 0, 0]}}], "kwargs": {}}]}, {"class_name": "Conv2D", "config": {"name": "block2c_se_reduce", "trainable": false, "dtype": {"module": "keras", "class_name": "DTypePolicy", "config": {"name": "mixed_float16"}, "registered_name": null}, "filters": 8, "kernel_size": [1, 1], "strides": [1, 1], "padding": "same", "data_format": "channels_last", "dilation_rate": [1, 1], "groups": 1, "activation": "silu", "use_bias": true, "kernel_initializer": {"module": "keras.initializers", "class_name": "VarianceScaling", "config": {"seed": null, "scale": 2.0, "mode": "fan_out", "distribution": "truncated_normal"}, "registered_name": null}, "bias_initializer": {"module": "keras.initializers", "class_name": "Zeros", "config": {}, "registered_name": null}, "kernel_regularizer": null, "bias_regularizer": null, "activity_regularizer": null, "kernel_constraint": null, "bias_constraint": null}, "name": "block2c_se_reduce", "inbound_nodes": [{"args": [{"class_name": "__keras_tensor__", "config": {"shape": [null, 1, 1, 192], "dtype": "float16", "keras_history": ["block2c_se_reshape", 0, 0]}}], "kwargs": {}}]}, {"class_name": "Conv2D", "config": {"name": "block2c_se_expand", "trainable": false, "dtype": {"module": "keras", "class_name": "DTypePolicy", "config": {"name": "mixed_float16"}, "registered_name": null}, "filters": 192, "kernel_size": [1, 1], "strides": [1, 1], "padding": "same", "data_format": "channels_last", "dilation_rate": [1, 1], "groups": 1, "activation": "sigmoid", "use_bias": true, "kernel_initializer": {"module": "keras.initializers", "class_name": "VarianceScaling", "config": {"seed": null, "scale": 2.0, "mode": "fan_out", "distribution": "truncated_normal"}, "registered_name": null}, "bias_initializer": {"module": "keras.initializers", "class_name": "Zeros", "config": {}, "registered_name": null}, "kernel_regularizer": null, "bias_regularizer": null, "activity_regularizer": null, "kernel_constraint": null, "bias_constraint": null}, "name": "block2c_se_expand", "inbound_nodes": [{"args": [{"class_name": "__keras_tensor__", "config": {"shape": [null, 1, 1, 8], "dtype": "float16", "keras_history": ["block2c_se_reduce", 0, 0]}}], "kwargs": {}}]}, {"class_name": "Multiply", "config": {"name": "block2c_se_excite", "trainable": false, "dtype": {"module": "keras", "class_name": "DTypePolicy", "config": {"name": "mixed_float16"}, "registered_name": null}}, "name": "block2c_se_excite", "inbound_nodes": [{"args": [[{"class_name": "__keras_tensor__", "config": {"shape": [null, 95, 95, 192], "dtype": "float16", "keras_history": ["block2c_activation", 0, 0]}}, {"class_name": "__keras_tensor__", "config": {"shape": [null, 1, 1, 192], "dtype": "float16", "keras_history": ["block2c_se_expand", 0, 0]}}]], "kwargs": {}}]}, {"class_name": "Conv2D", "config": {"name": "block2c_project_conv", "trainable": false, "dtype": {"module": "keras", "class_name": "DTypePolicy", "config": {"name": "mixed_float16"}, "registered_name": null}, "filters": 32, "kernel_size": [1, 1], "strides": [1, 1], "padding": "same", "data_format": "channels_last", "dilation_rate": [1, 1], "groups": 1, "activation": "linear", "use_bias": false, "kernel_initializer": {"module": "keras.initializers", "class_name": "VarianceScaling", "config": {"seed": null, "scale": 2.0, "mode": "fan_out", "distribution": "truncated_normal"}, "registered_name": null}, "bias_initializer": {"module": "keras.initializers", "class_name": "Zeros", "config": {}, "registered_name": null}, "kernel_regularizer": null, "bias_regularizer": null, "activity_regularizer": null, "kernel_constraint": null, "bias_constraint": null}, "name": "block2c_project_conv", "inbound_nodes": [{"args": [{"class_name": "__keras_tensor__", "config": {"shape": [null, 95, 95, 192], "dtype": "float16", "keras_history": ["block2c_se_excite", 0, 0]}}], "kwargs": {}}]}, {"class_name": "BatchNormalization", "config": {"name": "block2c_project_bn", "trainable": false, "dtype": {"module": "keras", "class_name": "DTypePolicy", "config": {"name": "mixed_float16"}, "registered_name": null}, "axis": 3, "momentum": 0.99, "epsilon": 0.001, "center": true, "scale": true, "beta_initializer": {"module": "keras.initializers", "class_name": "Zeros", "config": {}, "registered_name": null}, "gamma_initializer": {"module": "keras.initializers", "class_name": "Ones", "config": {}, "registered_name": null}, "moving_mean_initializer": {"module": "keras.initializers", "class_name": "Zeros", "config": {}, "registered_name": null}, "moving_variance_initializer": {"module": "keras.initializers", "class_name": "Ones", "config": {}, "registered_name": null}, "beta_regularizer": null, "gamma_regularizer": null, "beta_constraint": null, "gamma_constraint": null, "synchronized": false}, "name": "block2c_project_bn", "inbound_nodes": [{"args": [{"class_name": "__keras_tensor__", "config": {"shape": [null, 95, 95, 32], "dtype": "float16", "keras_history": ["block2c_project_conv", 0, 0]}}], "kwargs": {"mask": null}}]}, {"class_name": "Dropout", "config": {"name": "block2c_drop", "trainable": false, "dtype": {"module": "keras", "class_name": "DTypePolicy", "config": {"name": "mixed_float16"}, "registered_name": null}, "rate": 0.025, "seed": null, "noise_shape": [null, 1, 1, 1]}, "name": "block2c_drop", "inbound_nodes": [{"args": [{"class_name": "__keras_tensor__", "config": {"shape": [null, 95, 95, 32], "dtype": "float16", "keras_history": ["block2c_project_bn", 0, 0]}}], "kwargs": {"training": false}}]}, {"class_name": "Add", "config": {"name": "block2c_add", "trainable": false, "dtype": {"module": "keras", "class_name": "DTypePolicy", "config": {"name": "mixed_float16"}, "registered_name": null}}, "name": "block2c_add", "inbound_nodes": [{"args": [[{"class_name": "__keras_tensor__", "config": {"shape": [null, 95, 95, 32], "dtype": "float16", "keras_history": ["block2c_drop", 0, 0]}}, {"class_name": "__keras_tensor__", "config": {"shape": [null, 95, 95, 32], "dtype": "float16", "keras_history": ["block2b_add", 0, 0]}}]], "kwargs": {}}]}, {"class_name": "Conv2D", "config": {"name": "block2d_expand_conv", "trainable": false, "dtype": {"module": "keras", "class_name": "DTypePolicy", "config": {"name": "mixed_float16"}, "registered_name": null}, "filters": 192, "kernel_size": [1, 1], "strides": [1, 1], "padding": "same", "data_format": "channels_last", "dilation_rate": [1, 1], "groups": 1, "activation": "linear", "use_bias": false, "kernel_initializer": {"module": "keras.initializers", "class_name": "VarianceScaling", "config": {"seed": null, "scale": 2.0, "mode": "fan_out", "distribution": "truncated_normal"}, "registered_name": null}, "bias_initializer": {"module": "keras.initializers", "class_name": "Zeros", "config": {}, "registered_name": null}, "kernel_regularizer": null, "bias_regularizer": null, "activity_regularizer": null, "kernel_constraint": null, "bias_constraint": null}, "name": "block2d_expand_conv", "inbound_nodes": [{"args": [{"class_name": "__keras_tensor__", "config": {"shape": [null, 95, 95, 32], "dtype": "float16", "keras_history": ["block2c_add", 0, 0]}}], "kwargs": {}}]}, {"class_name": "BatchNormalization", "config": {"name": "block2d_expand_bn", "trainable": false, "dtype": {"module": "keras", "class_name": "DTypePolicy", "config": {"name": "mixed_float16"}, "registered_name": null}, "axis": 3, "momentum": 0.99, "epsilon": 0.001, "center": true, "scale": true, "beta_initializer": {"module": "keras.initializers", "class_name": "Zeros", "config": {}, "registered_name": null}, "gamma_initializer": {"module": "keras.initializers", "class_name": "Ones", "config": {}, "registered_name": null}, "moving_mean_initializer": {"module": "keras.initializers", "class_name": "Zeros", "config": {}, "registered_name": null}, "moving_variance_initializer": {"module": "keras.initializers", "class_name": "Ones", "config": {}, "registered_name": null}, "beta_regularizer": null, "gamma_regularizer": null, "beta_constraint": null, "gamma_constraint": null, "synchronized": false}, "name": "block2d_expand_bn", "inbound_nodes": [{"args": [{"class_name": "__keras_tensor__", "config": {"shape": [null, 95, 95, 192], "dtype": "float16", "keras_history": ["block2d_expand_conv", 0, 0]}}], "kwargs": {"mask": null}}]}, {"class_name": "Activation", "config": {"name": "block2d_expand_activation", "trainable": false, "dtype": {"module": "keras", "class_name": "DTypePolicy", "config": {"name": "mixed_float16"}, "registered_name": null}, "activation": "silu"}, "name": "block2d_expand_activation", "inbound_nodes": [{"args": [{"class_name": "__keras_tensor__", "config": {"shape": [null, 95, 95, 192], "dtype": "float16", "keras_history": ["block2d_expand_bn", 0, 0]}}], "kwargs": {}}]}, {"class_name": "DepthwiseConv2D", "config": {"name": "block2d_dwconv", "trainable": false, "dtype": {"module": "keras", "class_name": "DTypePolicy", "config": {"name": "mixed_float16"}, "registered_name": null}, "depth_multiplier": 1, "kernel_size": [3, 3], "strides": [1, 1], "padding": "same", "data_format": "channels_last", "dilation_rate": [1, 1], "activation": "linear", "use_bias": false, "depthwise_initializer": {"module": "keras.initializers", "class_name": "VarianceScaling", "config": {"seed": null, "scale": 2.0, "mode": "fan_out", "distribution": "truncated_normal"}, "registered_name": null}, "bias_initializer": {"module": "keras.initializers", "class_name": "Zeros", "config": {}, "registered_name": null}, "depthwise_regularizer": null, "bias_regularizer": null, "activity_regularizer": null, "depthwise_constraint": null, "bias_constraint": null}, "name": "block2d_dwconv", "inbound_nodes": [{"args": [{"class_name": "__keras_tensor__", "config": {"shape": [null, 95, 95, 192], "dtype": "float16", "keras_history": ["block2d_expand_activation", 0, 0]}}], "kwargs": {}}]}, {"class_name": "BatchNormalization", "config": {"name": "block2d_bn", "trainable": false, "dtype": {"module": "keras", "class_name": "DTypePolicy", "config": {"name": "mixed_float16"}, "registered_name": null}, "axis": 3, "momentum": 0.99, "epsilon": 0.001, "center": true, "scale": true, "beta_initializer": {"module": "keras.initializers", "class_name": "Zeros", "config": {}, "registered_name": null}, "gamma_initializer": {"module": "keras.initializers", "class_name": "Ones", "config": {}, "registered_name": null}, "moving_mean_initializer": {"module": "keras.initializers", "class_name": "Zeros", "config": {}, "registered_name": null}, "moving_variance_initializer": {"module": "keras.initializers", "class_name": "Ones", "config": {}, "registered_name": null}, "beta_regularizer": null, "gamma_regularizer": null, "beta_constraint": null, "gamma_constraint": null, "synchronized": false}, "name": "block2d_bn", "inbound_nodes": [{"args": [{"class_name": "__keras_tensor__", "config": {"shape": [null, 95, 95, 192], "dtype": "float16", "keras_history": ["block2d_dwconv", 0, 0]}}], "kwargs": {"mask": null}}]}, {"class_name": "Activation", "config": {"name": "block2d_activation", "trainable": false, "dtype": {"module": "keras", "class_name": "DTypePolicy", "config": {"name": "mixed_float16"}, "registered_name": null}, "activation": "silu"}, "name": "block2d_activation", "inbound_nodes": [{"args": [{"class_name": "__keras_tensor__", "config": {"shape": [null, 95, 95, 192], "dtype": "float16", "keras_history": ["block2d_bn", 0, 0]}}], "kwargs": {}}]}, {"class_name": "GlobalAveragePooling2D", "config": {"name": "block2d_se_squeeze", "trainable": false, "dtype": {"module": "keras", "class_name": "DTypePolicy", "config": {"name": "mixed_float16"}, "registered_name": null}, "data_format": "channels_last", "keepdims": false}, "name": "block2d_se_squeeze", "inbound_nodes": [{"args": [{"class_name": "__keras_tensor__", "config": {"shape": [null, 95, 95, 192], "dtype": "float16", "keras_history": ["block2d_activation", 0, 0]}}], "kwargs": {}}]}, {"class_name": "Reshape", "config": {"name": "block2d_se_reshape", "trainable": false, "dtype": {"module": "keras", "class_name": "DTypePolicy", "config": {"name": "mixed_float16"}, "registered_name": null}, "target_shape": [1, 1, 192]}, "name": "block2d_se_reshape", "inbound_nodes": [{"args": [{"class_name": "__keras_tensor__", "config": {"shape": [null, 192], "dtype": "float16", "keras_history": ["block2d_se_squeeze", 0, 0]}}], "kwargs": {}}]}, {"class_name": "Conv2D", "config": {"name": "block2d_se_reduce", "trainable": false, "dtype": {"module": "keras", "class_name": "DTypePolicy", "config": {"name": "mixed_float16"}, "registered_name": null}, "filters": 8, "kernel_size": [1, 1], "strides": [1, 1], "padding": "same", "data_format": "channels_last", "dilation_rate": [1, 1], "groups": 1, "activation": "silu", "use_bias": true, "kernel_initializer": {"module": "keras.initializers", "class_name": "VarianceScaling", "config": {"seed": null, "scale": 2.0, "mode": "fan_out", "distribution": "truncated_normal"}, "registered_name": null}, "bias_initializer": {"module": "keras.initializers", "class_name": "Zeros", "config": {}, "registered_name": null}, "kernel_regularizer": null, "bias_regularizer": null, "activity_regularizer": null, "kernel_constraint": null, "bias_constraint": null}, "name": "block2d_se_reduce", "inbound_nodes": [{"args": [{"class_name": "__keras_tensor__", "config": {"shape": [null, 1, 1, 192], "dtype": "float16", "keras_history": ["block2d_se_reshape", 0, 0]}}], "kwargs": {}}]}, {"class_name": "Conv2D", "config": {"name": "block2d_se_expand", "trainable": false, "dtype": {"module": "keras", "class_name": "DTypePolicy", "config": {"name": "mixed_float16"}, "registered_name": null}, "filters": 192, "kernel_size": [1, 1], "strides": [1, 1], "padding": "same", "data_format": "channels_last", "dilation_rate": [1, 1], "groups": 1, "activation": "sigmoid", "use_bias": true, "kernel_initializer": {"module": "keras.initializers", "class_name": "VarianceScaling", "config": {"seed": null, "scale": 2.0, "mode": "fan_out", "distribution": "truncated_normal"}, "registered_name": null}, "bias_initializer": {"module": "keras.initializers", "class_name": "Zeros", "config": {}, "registered_name": null}, "kernel_regularizer": null, "bias_regularizer": null, "activity_regularizer": null, "kernel_constraint": null, "bias_constraint": null}, "name": "block2d_se_expand", "inbound_nodes": [{"args": [{"class_name": "__keras_tensor__", "config": {"shape": [null, 1, 1, 8], "dtype": "float16", "keras_history": ["block2d_se_reduce", 0, 0]}}], "kwargs": {}}]}, {"class_name": "Multiply", "config": {"name": "block2d_se_excite", "trainable": false, "dtype": {"module": "keras", "class_name": "DTypePolicy", "config": {"name": "mixed_float16"}, "registered_name": null}}, "name": "block2d_se_excite", "inbound_nodes": [{"args": [[{"class_name": "__keras_tensor__", "config": {"shape": [null, 95, 95, 192], "dtype": "float16", "keras_history": ["block2d_activation", 0, 0]}}, {"class_name": "__keras_tensor__", "config": {"shape": [null, 1, 1, 192], "dtype": "float16", "keras_history": ["block2d_se_expand", 0, 0]}}]], "kwargs": {}}]}, {"class_name": "Conv2D", "config": {"name": "block2d_project_conv", "trainable": false, "dtype": {"module": "keras", "class_name": "DTypePolicy", "config": {"name": "mixed_float16"}, "registered_name": null}, "filters": 32, "kernel_size": [1, 1], "strides": [1, 1], "padding": "same", "data_format": "channels_last", "dilation_rate": [1, 1], "groups": 1, "activation": "linear", "use_bias": false, "kernel_initializer": {"module": "keras.initializers", "class_name": "VarianceScaling", "config": {"seed": null, "scale": 2.0, "mode": "fan_out", "distribution": "truncated_normal"}, "registered_name": null}, "bias_initializer": {"module": "keras.initializers", "class_name": "Zeros", "config": {}, "registered_name": null}, "kernel_regularizer": null, "bias_regularizer": null, "activity_regularizer": null, "kernel_constraint": null, "bias_constraint": null}, "name": "block2d_project_conv", "inbound_nodes": [{"args": [{"class_name": "__keras_tensor__", "config": {"shape": [null, 95, 95, 192], "dtype": "float16", "keras_history": ["block2d_se_excite", 0, 0]}}], "kwargs": {}}]}, {"class_name": "BatchNormalization", "config": {"name": "block2d_project_bn", "trainable": false, "dtype": {"module": "keras", "class_name": "DTypePolicy", "config": {"name": "mixed_float16"}, "registered_name": null}, "axis": 3, "momentum": 0.99, "epsilon": 0.001, "center": true, "scale": true, "beta_initializer": {"module": "keras.initializers", "class_name": "Zeros", "config": {}, "registered_name": null}, "gamma_initializer": {"module": "keras.initializers", "class_name": "Ones", "config": {}, "registered_name": null}, "moving_mean_initializer": {"module": "keras.initializers", "class_name": "Zeros", "config": {}, "registered_name": null}, "moving_variance_initializer": {"module": "keras.initializers", "class_name": "Ones", "config": {}, "registered_name": null}, "beta_regularizer": null, "gamma_regularizer": null, "beta_constraint": null, "gamma_constraint": null, "synchronized": false}, "name": "block2d_project_bn", "inbound_nodes": [{"args": [{"class_name": "__keras_tensor__", "config": {"shape": [null, 95, 95, 32], "dtype": "float16", "keras_history": ["block2d_project_conv", 0, 0]}}], "kwargs": {"mask": null}}]}, {"class_name": "Dropout", "config": {"name": "block2d_drop", "trainable": false, "dtype": {"module": "keras", "class_name": "DTypePolicy", "config": {"name": "mixed_float16"}, "registered_name": null}, "rate": 0.03125, "seed": null, "noise_shape": [null, 1, 1, 1]}, "name": "block2d_drop", "inbound_nodes": [{"args": [{"class_name": "__keras_tensor__", "config": {"shape": [null, 95, 95, 32], "dtype": "float16", "keras_history": ["block2d_project_bn", 0, 0]}}], "kwargs": {"training": false}}]}, {"class_name": "Add", "config": {"name": "block2d_add", "trainable": false, "dtype": {"module": "keras", "class_name": "DTypePolicy", "config": {"name": "mixed_float16"}, "registered_name": null}}, "name": "block2d_add", "inbound_nodes": [{"args": [[{"class_name": "__keras_tensor__", "config": {"shape": [null, 95, 95, 32], "dtype": "float16", "keras_history": ["block2d_drop", 0, 0]}}, {"class_name": "__keras_tensor__", "config": {"shape": [null, 95, 95, 32], "dtype": "float16", "keras_history": ["block2c_add", 0, 0]}}]], "kwargs": {}}]}, {"class_name": "Conv2D", "config": {"name": "block3a_expand_conv", "trainable": false, "dtype": {"module": "keras", "class_name": "DTypePolicy", "config": {"name": "mixed_float16"}, "registered_name": null}, "filters": 192, "kernel_size": [1, 1], "strides": [1, 1], "padding": "same", "data_format": "channels_last", "dilation_rate": [1, 1], "groups": 1, "activation": "linear", "use_bias": false, "kernel_initializer": {"module": "keras.initializers", "class_name": "VarianceScaling", "config": {"seed": null, "scale": 2.0, "mode": "fan_out", "distribution": "truncated_normal"}, "registered_name": null}, "bias_initializer": {"module": "keras.initializers", "class_name": "Zeros", "config": {}, "registered_name": null}, "kernel_regularizer": null, "bias_regularizer": null, "activity_regularizer": null, "kernel_constraint": null, "bias_constraint": null}, "name": "block3a_expand_conv", "inbound_nodes": [{"args": [{"class_name": "__keras_tensor__", "config": {"shape": [null, 95, 95, 32], "dtype": "float16", "keras_history": ["block2d_add", 0, 0]}}], "kwargs": {}}]}, {"class_name": "BatchNormalization", "config": {"name": "block3a_expand_bn", "trainable": false, "dtype": {"module": "keras", "class_name": "DTypePolicy", "config": {"name": "mixed_float16"}, "registered_name": null}, "axis": 3, "momentum": 0.99, "epsilon": 0.001, "center": true, "scale": true, "beta_initializer": {"module": "keras.initializers", "class_name": "Zeros", "config": {}, "registered_name": null}, "gamma_initializer": {"module": "keras.initializers", "class_name": "Ones", "config": {}, "registered_name": null}, "moving_mean_initializer": {"module": "keras.initializers", "class_name": "Zeros", "config": {}, "registered_name": null}, "moving_variance_initializer": {"module": "keras.initializers", "class_name": "Ones", "config": {}, "registered_name": null}, "beta_regularizer": null, "gamma_regularizer": null, "beta_constraint": null, "gamma_constraint": null, "synchronized": false}, "name": "block3a_expand_bn", "inbound_nodes": [{"args": [{"class_name": "__keras_tensor__", "config": {"shape": [null, 95, 95, 192], "dtype": "float16", "keras_history": ["block3a_expand_conv", 0, 0]}}], "kwargs": {"mask": null}}]}, {"class_name": "Activation", "config": {"name": "block3a_expand_activation", "trainable": false, "dtype": {"module": "keras", "class_name": "DTypePolicy", "config": {"name": "mixed_float16"}, "registered_name": null}, "activation": "silu"}, "name": "block3a_expand_activation", "inbound_nodes": [{"args": [{"class_name": "__keras_tensor__", "config": {"shape": [null, 95, 95, 192], "dtype": "float16", "keras_history": ["block3a_expand_bn", 0, 0]}}], "kwargs": {}}]}, {"class_name": "ZeroPadding2D", "config": {"name": "block3a_dwconv_pad", "trainable": false, "dtype": {"module": "keras", "class_name": "DTypePolicy", "config": {"name": "mixed_float16"}, "registered_name": null}, "padding": [[2, 2], [2, 2]], "data_format": "channels_last"}, "name": "block3a_dwconv_pad", "inbound_nodes": [{"args": [{"class_name": "__keras_tensor__", "config": {"shape": [null, 95, 95, 192], "dtype": "float16", "keras_history": ["block3a_expand_activation", 0, 0]}}], "kwargs": {}}]}, {"class_name": "DepthwiseConv2D", "config": {"name": "block3a_dwconv", "trainable": false, "dtype": {"module": "keras", "class_name": "DTypePolicy", "config": {"name": "mixed_float16"}, "registered_name": null}, "depth_multiplier": 1, "kernel_size": [5, 5], "strides": [2, 2], "padding": "valid", "data_format": "channels_last", "dilation_rate": [1, 1], "activation": "linear", "use_bias": false, "depthwise_initializer": {"module": "keras.initializers", "class_name": "VarianceScaling", "config": {"seed": null, "scale": 2.0, "mode": "fan_out", "distribution": "truncated_normal"}, "registered_name": null}, "bias_initializer": {"module": "keras.initializers", "class_name": "Zeros", "config": {}, "registered_name": null}, "depthwise_regularizer": null, "bias_regularizer": null, "activity_regularizer": null, "depthwise_constraint": null, "bias_constraint": null}, "name": "block3a_dwconv", "inbound_nodes": [{"args": [{"class_name": "__keras_tensor__", "config": {"shape": [null, 99, 99, 192], "dtype": "float16", "keras_history": ["block3a_dwconv_pad", 0, 0]}}], "kwargs": {}}]}, {"class_name": "BatchNormalization", "config": {"name": "block3a_bn", "trainable": false, "dtype": {"module": "keras", "class_name": "DTypePolicy", "config": {"name": "mixed_float16"}, "registered_name": null}, "axis": 3, "momentum": 0.99, "epsilon": 0.001, "center": true, "scale": true, "beta_initializer": {"module": "keras.initializers", "class_name": "Zeros", "config": {}, "registered_name": null}, "gamma_initializer": {"module": "keras.initializers", "class_name": "Ones", "config": {}, "registered_name": null}, "moving_mean_initializer": {"module": "keras.initializers", "class_name": "Zeros", "config": {}, "registered_name": null}, "moving_variance_initializer": {"module": "keras.initializers", "class_name": "Ones", "config": {}, "registered_name": null}, "beta_regularizer": null, "gamma_regularizer": null, "beta_constraint": null, "gamma_constraint": null, "synchronized": false}, "name": "block3a_bn", "inbound_nodes": [{"args": [{"class_name": "__keras_tensor__", "config": {"shape": [null, 48, 48, 192], "dtype": "float16", "keras_history": ["block3a_dwconv", 0, 0]}}], "kwargs": {"mask": null}}]}, {"class_name": "Activation", "config": {"name": "block3a_activation", "trainable": false, "dtype": {"module": "keras", "class_name": "DTypePolicy", "config": {"name": "mixed_float16"}, "registered_name": null}, "activation": "silu"}, "name": "block3a_activation", "inbound_nodes": [{"args": [{"class_name": "__keras_tensor__", "config": {"shape": [null, 48, 48, 192], "dtype": "float16", "keras_history": ["block3a_bn", 0, 0]}}], "kwargs": {}}]}, {"class_name": "GlobalAveragePooling2D", "config": {"name": "block3a_se_squeeze", "trainable": false, "dtype": {"module": "keras", "class_name": "DTypePolicy", "config": {"name": "mixed_float16"}, "registered_name": null}, "data_format": "channels_last", "keepdims": false}, "name": "block3a_se_squeeze", "inbound_nodes": [{"args": [{"class_name": "__keras_tensor__", "config": {"shape": [null, 48, 48, 192], "dtype": "float16", "keras_history": ["block3a_activation", 0, 0]}}], "kwargs": {}}]}, {"class_name": "Reshape", "config": {"name": "block3a_se_reshape", "trainable": false, "dtype": {"module": "keras", "class_name": "DTypePolicy", "config": {"name": "mixed_float16"}, "registered_name": null}, "target_shape": [1, 1, 192]}, "name": "block3a_se_reshape", "inbound_nodes": [{"args": [{"class_name": "__keras_tensor__", "config": {"shape": [null, 192], "dtype": "float16", "keras_history": ["block3a_se_squeeze", 0, 0]}}], "kwargs": {}}]}, {"class_name": "Conv2D", "config": {"name": "block3a_se_reduce", "trainable": false, "dtype": {"module": "keras", "class_name": "DTypePolicy", "config": {"name": "mixed_float16"}, "registered_name": null}, "filters": 8, "kernel_size": [1, 1], "strides": [1, 1], "padding": "same", "data_format": "channels_last", "dilation_rate": [1, 1], "groups": 1, "activation": "silu", "use_bias": true, "kernel_initializer": {"module": "keras.initializers", "class_name": "VarianceScaling", "config": {"seed": null, "scale": 2.0, "mode": "fan_out", "distribution": "truncated_normal"}, "registered_name": null}, "bias_initializer": {"module": "keras.initializers", "class_name": "Zeros", "config": {}, "registered_name": null}, "kernel_regularizer": null, "bias_regularizer": null, "activity_regularizer": null, "kernel_constraint": null, "bias_constraint": null}, "name": "block3a_se_reduce", "inbound_nodes": [{"args": [{"class_name": "__keras_tensor__", "config": {"shape": [null, 1, 1, 192], "dtype": "float16", "keras_history": ["block3a_se_reshape", 0, 0]}}], "kwargs": {}}]}, {"class_name": "Conv2D", "config": {"name": "block3a_se_expand", "trainable": false, "dtype": {"module": "keras", "class_name": "DTypePolicy", "config": {"name": "mixed_float16"}, "registered_name": null}, "filters": 192, "kernel_size": [1, 1], "strides": [1, 1], "padding": "same", "data_format": "channels_last", "dilation_rate": [1, 1], "groups": 1, "activation": "sigmoid", "use_bias": true, "kernel_initializer": {"module": "keras.initializers", "class_name": "VarianceScaling", "config": {"seed": null, "scale": 2.0, "mode": "fan_out", "distribution": "truncated_normal"}, "registered_name": null}, "bias_initializer": {"module": "keras.initializers", "class_name": "Zeros", "config": {}, "registered_name": null}, "kernel_regularizer": null, "bias_regularizer": null, "activity_regularizer": null, "kernel_constraint": null, "bias_constraint": null}, "name": "block3a_se_expand", "inbound_nodes": [{"args": [{"class_name": "__keras_tensor__", "config": {"shape": [null, 1, 1, 8], "dtype": "float16", "keras_history": ["block3a_se_reduce", 0, 0]}}], "kwargs": {}}]}, {"class_name": "Multiply", "config": {"name": "block3a_se_excite", "trainable": false, "dtype": {"module": "keras", "class_name": "DTypePolicy", "config": {"name": "mixed_float16"}, "registered_name": null}}, "name": "block3a_se_excite", "inbound_nodes": [{"args": [[{"class_name": "__keras_tensor__", "config": {"shape": [null, 48, 48, 192], "dtype": "float16", "keras_history": ["block3a_activation", 0, 0]}}, {"class_name": "__keras_tensor__", "config": {"shape": [null, 1, 1, 192], "dtype": "float16", "keras_history": ["block3a_se_expand", 0, 0]}}]], "kwargs": {}}]}, {"class_name": "Conv2D", "config": {"name": "block3a_project_conv", "trainable": false, "dtype": {"module": "keras", "class_name": "DTypePolicy", "config": {"name": "mixed_float16"}, "registered_name": null}, "filters": 56, "kernel_size": [1, 1], "strides": [1, 1], "padding": "same", "data_format": "channels_last", "dilation_rate": [1, 1], "groups": 1, "activation": "linear", "use_bias": false, "kernel_initializer": {"module": "keras.initializers", "class_name": "VarianceScaling", "config": {"seed": null, "scale": 2.0, "mode": "fan_out", "distribution": "truncated_normal"}, "registered_name": null}, "bias_initializer": {"module": "keras.initializers", "class_name": "Zeros", "config": {}, "registered_name": null}, "kernel_regularizer": null, "bias_regularizer": null, "activity_regularizer": null, "kernel_constraint": null, "bias_constraint": null}, "name": "block3a_project_conv", "inbound_nodes": [{"args": [{"class_name": "__keras_tensor__", "config": {"shape": [null, 48, 48, 192], "dtype": "float16", "keras_history": ["block3a_se_excite", 0, 0]}}], "kwargs": {}}]}, {"class_name": "BatchNormalization", "config": {"name": "block3a_project_bn", "trainable": false, "dtype": {"module": "keras", "class_name": "DTypePolicy", "config": {"name": "mixed_float16"}, "registered_name": null}, "axis": 3, "momentum": 0.99, "epsilon": 0.001, "center": true, "scale": true, "beta_initializer": {"module": "keras.initializers", "class_name": "Zeros", "config": {}, "registered_name": null}, "gamma_initializer": {"module": "keras.initializers", "class_name": "Ones", "config": {}, "registered_name": null}, "moving_mean_initializer": {"module": "keras.initializers", "class_name": "Zeros", "config": {}, "registered_name": null}, "moving_variance_initializer": {"module": "keras.initializers", "class_name": "Ones", "config": {}, "registered_name": null}, "beta_regularizer": null, "gamma_regularizer": null, "beta_constraint": null, "gamma_constraint": null, "synchronized": false}, "name": "block3a_project_bn", "inbound_nodes": [{"args": [{"class_name": "__keras_tensor__", "config": {"shape": [null, 48, 48, 56], "dtype": "float16", "keras_history": ["block3a_project_conv", 0, 0]}}], "kwargs": {"mask": null}}]}, {"class_name": "Conv2D", "config": {"name": "block3b_expand_conv", "trainable": false, "dtype": {"module": "keras", "class_name": "DTypePolicy", "config": {"name": "mixed_float16"}, "registered_name": null}, "filters": 336, "kernel_size": [1, 1], "strides": [1, 1], "padding": "same", "data_format": "channels_last", "dilation_rate": [1, 1], "groups": 1, "activation": "linear", "use_bias": false, "kernel_initializer": {"module": "keras.initializers", "class_name": "VarianceScaling", "config": {"seed": null, "scale": 2.0, "mode": "fan_out", "distribution": "truncated_normal"}, "registered_name": null}, "bias_initializer": {"module": "keras.initializers", "class_name": "Zeros", "config": {}, "registered_name": null}, "kernel_regularizer": null, "bias_regularizer": null, "activity_regularizer": null, "kernel_constraint": null, "bias_constraint": null}, "name": "block3b_expand_conv", "inbound_nodes": [{"args": [{"class_name": "__keras_tensor__", "config": {"shape": [null, 48, 48, 56], "dtype": "float16", "keras_history": ["block3a_project_bn", 0, 0]}}], "kwargs": {}}]}, {"class_name": "BatchNormalization", "config": {"name": "block3b_expand_bn", "trainable": false, "dtype": {"module": "keras", "class_name": "DTypePolicy", "config": {"name": "mixed_float16"}, "registered_name": null}, "axis": 3, "momentum": 0.99, "epsilon": 0.001, "center": true, "scale": true, "beta_initializer": {"module": "keras.initializers", "class_name": "Zeros", "config": {}, "registered_name": null}, "gamma_initializer": {"module": "keras.initializers", "class_name": "Ones", "config": {}, "registered_name": null}, "moving_mean_initializer": {"module": "keras.initializers", "class_name": "Zeros", "config": {}, "registered_name": null}, "moving_variance_initializer": {"module": "keras.initializers", "class_name": "Ones", "config": {}, "registered_name": null}, "beta_regularizer": null, "gamma_regularizer": null, "beta_constraint": null, "gamma_constraint": null, "synchronized": false}, "name": "block3b_expand_bn", "inbound_nodes": [{"args": [{"class_name": "__keras_tensor__", "config": {"shape": [null, 48, 48, 336], "dtype": "float16", "keras_history": ["block3b_expand_conv", 0, 0]}}], "kwargs": {"mask": null}}]}, {"class_name": "Activation", "config": {"name": "block3b_expand_activation", "trainable": false, "dtype": {"module": "keras", "class_name": "DTypePolicy", "config": {"name": "mixed_float16"}, "registered_name": null}, "activation": "silu"}, "name": "block3b_expand_activation", "inbound_nodes": [{"args": [{"class_name": "__keras_tensor__", "config": {"shape": [null, 48, 48, 336], "dtype": "float16", "keras_history": ["block3b_expand_bn", 0, 0]}}], "kwargs": {}}]}, {"class_name": "DepthwiseConv2D", "config": {"name": "block3b_dwconv", "trainable": false, "dtype": {"module": "keras", "class_name": "DTypePolicy", "config": {"name": "mixed_float16"}, "registered_name": null}, "depth_multiplier": 1, "kernel_size": [5, 5], "strides": [1, 1], "padding": "same", "data_format": "channels_last", "dilation_rate": [1, 1], "activation": "linear", "use_bias": false, "depthwise_initializer": {"module": "keras.initializers", "class_name": "VarianceScaling", "config": {"seed": null, "scale": 2.0, "mode": "fan_out", "distribution": "truncated_normal"}, "registered_name": null}, "bias_initializer": {"module": "keras.initializers", "class_name": "Zeros", "config": {}, "registered_name": null}, "depthwise_regularizer": null, "bias_regularizer": null, "activity_regularizer": null, "depthwise_constraint": null, "bias_constraint": null}, "name": "block3b_dwconv", "inbound_nodes": [{"args": [{"class_name": "__keras_tensor__", "config": {"shape": [null, 48, 48, 336], "dtype": "float16", "keras_history": ["block3b_expand_activation", 0, 0]}}], "kwargs": {}}]}, {"class_name": "BatchNormalization", "config": {"name": "block3b_bn", "trainable": false, "dtype": {"module": "keras", "class_name": "DTypePolicy", "config": {"name": "mixed_float16"}, "registered_name": null}, "axis": 3, "momentum": 0.99, "epsilon": 0.001, "center": true, "scale": true, "beta_initializer": {"module": "keras.initializers", "class_name": "Zeros", "config": {}, "registered_name": null}, "gamma_initializer": {"module": "keras.initializers", "class_name": "Ones", "config": {}, "registered_name": null}, "moving_mean_initializer": {"module": "keras.initializers", "class_name": "Zeros", "config": {}, "registered_name": null}, "moving_variance_initializer": {"module": "keras.initializers", "class_name": "Ones", "config": {}, "registered_name": null}, "beta_regularizer": null, "gamma_regularizer": null, "beta_constraint": null, "gamma_constraint": null, "synchronized": false}, "name": "block3b_bn", "inbound_nodes": [{"args": [{"class_name": "__keras_tensor__", "config": {"shape": [null, 48, 48, 336], "dtype": "float16", "keras_history": ["block3b_dwconv", 0, 0]}}], "kwargs": {"mask": null}}]}, {"class_name": "Activation", "config": {"name": "block3b_activation", "trainable": false, "dtype": {"module": "keras", "class_name": "DTypePolicy", "config": {"name": "mixed_float16"}, "registered_name": null}, "activation": "silu"}, "name": "block3b_activation", "inbound_nodes": [{"args": [{"class_name": "__keras_tensor__", "config": {"shape": [null, 48, 48, 336], "dtype": "float16", "keras_history": ["block3b_bn", 0, 0]}}], "kwargs": {}}]}, {"class_name": "GlobalAveragePooling2D", "config": {"name": "block3b_se_squeeze", "trainable": false, "dtype": {"module": "keras", "class_name": "DTypePolicy", "config": {"name": "mixed_float16"}, "registered_name": null}, "data_format": "channels_last", "keepdims": false}, "name": "block3b_se_squeeze", "inbound_nodes": [{"args": [{"class_name": "__keras_tensor__", "config": {"shape": [null, 48, 48, 336], "dtype": "float16", "keras_history": ["block3b_activation", 0, 0]}}], "kwargs": {}}]}, {"class_name": "Reshape", "config": {"name": "block3b_se_reshape", "trainable": false, "dtype": {"module": "keras", "class_name": "DTypePolicy", "config": {"name": "mixed_float16"}, "registered_name": null}, "target_shape": [1, 1, 336]}, "name": "block3b_se_reshape", "inbound_nodes": [{"args": [{"class_name": "__keras_tensor__", "config": {"shape": [null, 336], "dtype": "float16", "keras_history": ["block3b_se_squeeze", 0, 0]}}], "kwargs": {}}]}, {"class_name": "Conv2D", "config": {"name": "block3b_se_reduce", "trainable": false, "dtype": {"module": "keras", "class_name": "DTypePolicy", "config": {"name": "mixed_float16"}, "registered_name": null}, "filters": 14, "kernel_size": [1, 1], "strides": [1, 1], "padding": "same", "data_format": "channels_last", "dilation_rate": [1, 1], "groups": 1, "activation": "silu", "use_bias": true, "kernel_initializer": {"module": "keras.initializers", "class_name": "VarianceScaling", "config": {"seed": null, "scale": 2.0, "mode": "fan_out", "distribution": "truncated_normal"}, "registered_name": null}, "bias_initializer": {"module": "keras.initializers", "class_name": "Zeros", "config": {}, "registered_name": null}, "kernel_regularizer": null, "bias_regularizer": null, "activity_regularizer": null, "kernel_constraint": null, "bias_constraint": null}, "name": "block3b_se_reduce", "inbound_nodes": [{"args": [{"class_name": "__keras_tensor__", "config": {"shape": [null, 1, 1, 336], "dtype": "float16", "keras_history": ["block3b_se_reshape", 0, 0]}}], "kwargs": {}}]}, {"class_name": "Conv2D", "config": {"name": "block3b_se_expand", "trainable": false, "dtype": {"module": "keras", "class_name": "DTypePolicy", "config": {"name": "mixed_float16"}, "registered_name": null}, "filters": 336, "kernel_size": [1, 1], "strides": [1, 1], "padding": "same", "data_format": "channels_last", "dilation_rate": [1, 1], "groups": 1, "activation": "sigmoid", "use_bias": true, "kernel_initializer": {"module": "keras.initializers", "class_name": "VarianceScaling", "config": {"seed": null, "scale": 2.0, "mode": "fan_out", "distribution": "truncated_normal"}, "registered_name": null}, "bias_initializer": {"module": "keras.initializers", "class_name": "Zeros", "config": {}, "registered_name": null}, "kernel_regularizer": null, "bias_regularizer": null, "activity_regularizer": null, "kernel_constraint": null, "bias_constraint": null}, "name": "block3b_se_expand", "inbound_nodes": [{"args": [{"class_name": "__keras_tensor__", "config": {"shape": [null, 1, 1, 14], "dtype": "float16", "keras_history": ["block3b_se_reduce", 0, 0]}}], "kwargs": {}}]}, {"class_name": "Multiply", "config": {"name": "block3b_se_excite", "trainable": false, "dtype": {"module": "keras", "class_name": "DTypePolicy", "config": {"name": "mixed_float16"}, "registered_name": null}}, "name": "block3b_se_excite", "inbound_nodes": [{"args": [[{"class_name": "__keras_tensor__", "config": {"shape": [null, 48, 48, 336], "dtype": "float16", "keras_history": ["block3b_activation", 0, 0]}}, {"class_name": "__keras_tensor__", "config": {"shape": [null, 1, 1, 336], "dtype": "float16", "keras_history": ["block3b_se_expand", 0, 0]}}]], "kwargs": {}}]}, {"class_name": "Conv2D", "config": {"name": "block3b_project_conv", "trainable": false, "dtype": {"module": "keras", "class_name": "DTypePolicy", "config": {"name": "mixed_float16"}, "registered_name": null}, "filters": 56, "kernel_size": [1, 1], "strides": [1, 1], "padding": "same", "data_format": "channels_last", "dilation_rate": [1, 1], "groups": 1, "activation": "linear", "use_bias": false, "kernel_initializer": {"module": "keras.initializers", "class_name": "VarianceScaling", "config": {"seed": null, "scale": 2.0, "mode": "fan_out", "distribution": "truncated_normal"}, "registered_name": null}, "bias_initializer": {"module": "keras.initializers", "class_name": "Zeros", "config": {}, "registered_name": null}, "kernel_regularizer": null, "bias_regularizer": null, "activity_regularizer": null, "kernel_constraint": null, "bias_constraint": null}, "name": "block3b_project_conv", "inbound_nodes": [{"args": [{"class_name": "__keras_tensor__", "config": {"shape": [null, 48, 48, 336], "dtype": "float16", "keras_history": ["block3b_se_excite", 0, 0]}}], "kwargs": {}}]}, {"class_name": "BatchNormalization", "config": {"name": "block3b_project_bn", "trainable": false, "dtype": {"module": "keras", "class_name": "DTypePolicy", "config": {"name": "mixed_float16"}, "registered_name": null}, "axis": 3, "momentum": 0.99, "epsilon": 0.001, "center": true, "scale": true, "beta_initializer": {"module": "keras.initializers", "class_name": "Zeros", "config": {}, "registered_name": null}, "gamma_initializer": {"module": "keras.initializers", "class_name": "Ones", "config": {}, "registered_name": null}, "moving_mean_initializer": {"module": "keras.initializers", "class_name": "Zeros", "config": {}, "registered_name": null}, "moving_variance_initializer": {"module": "keras.initializers", "class_name": "Ones", "config": {}, "registered_name": null}, "beta_regularizer": null, "gamma_regularizer": null, "beta_constraint": null, "gamma_constraint": null, "synchronized": false}, "name": "block3b_project_bn", "inbound_nodes": [{"args": [{"class_name": "__keras_tensor__", "config": {"shape": [null, 48, 48, 56], "dtype": "float16", "keras_history": ["block3b_project_conv", 0, 0]}}], "kwargs": {"mask": null}}]}, {"class_name": "Dropout", "config": {"name": "block3b_drop", "trainable": false, "dtype": {"module": "keras", "class_name": "DTypePolicy", "config": {"name": "mixed_float16"}, "registered_name": null}, "rate": 0.043750000000000004, "seed": null, "noise_shape": [null, 1, 1, 1]}, "name": "block3b_drop", "inbound_nodes": [{"args": [{"class_name": "__keras_tensor__", "config": {"shape": [null, 48, 48, 56], "dtype": "float16", "keras_history": ["block3b_project_bn", 0, 0]}}], "kwargs": {"training": false}}]}, {"class_name": "Add", "config": {"name": "block3b_add", "trainable": false, "dtype": {"module": "keras", "class_name": "DTypePolicy", "config": {"name": "mixed_float16"}, "registered_name": null}}, "name": "block3b_add", "inbound_nodes": [{"args": [[{"class_name": "__keras_tensor__", "config": {"shape": [null, 48, 48, 56], "dtype": "float16", "keras_history": ["block3b_drop", 0, 0]}}, {"class_name": "__keras_tensor__", "config": {"shape": [null, 48, 48, 56], "dtype": "float16", "keras_history": ["block3a_project_bn", 0, 0]}}]], "kwargs": {}}]}, {"class_name": "Conv2D", "config": {"name": "block3c_expand_conv", "trainable": false, "dtype": {"module": "keras", "class_name": "DTypePolicy", "config": {"name": "mixed_float16"}, "registered_name": null}, "filters": 336, "kernel_size": [1, 1], "strides": [1, 1], "padding": "same", "data_format": "channels_last", "dilation_rate": [1, 1], "groups": 1, "activation": "linear", "use_bias": false, "kernel_initializer": {"module": "keras.initializers", "class_name": "VarianceScaling", "config": {"seed": null, "scale": 2.0, "mode": "fan_out", "distribution": "truncated_normal"}, "registered_name": null}, "bias_initializer": {"module": "keras.initializers", "class_name": "Zeros", "config": {}, "registered_name": null}, "kernel_regularizer": null, "bias_regularizer": null, "activity_regularizer": null, "kernel_constraint": null, "bias_constraint": null}, "name": "block3c_expand_conv", "inbound_nodes": [{"args": [{"class_name": "__keras_tensor__", "config": {"shape": [null, 48, 48, 56], "dtype": "float16", "keras_history": ["block3b_add", 0, 0]}}], "kwargs": {}}]}, {"class_name": "BatchNormalization", "config": {"name": "block3c_expand_bn", "trainable": false, "dtype": {"module": "keras", "class_name": "DTypePolicy", "config": {"name": "mixed_float16"}, "registered_name": null}, "axis": 3, "momentum": 0.99, "epsilon": 0.001, "center": true, "scale": true, "beta_initializer": {"module": "keras.initializers", "class_name": "Zeros", "config": {}, "registered_name": null}, "gamma_initializer": {"module": "keras.initializers", "class_name": "Ones", "config": {}, "registered_name": null}, "moving_mean_initializer": {"module": "keras.initializers", "class_name": "Zeros", "config": {}, "registered_name": null}, "moving_variance_initializer": {"module": "keras.initializers", "class_name": "Ones", "config": {}, "registered_name": null}, "beta_regularizer": null, "gamma_regularizer": null, "beta_constraint": null, "gamma_constraint": null, "synchronized": false}, "name": "block3c_expand_bn", "inbound_nodes": [{"args": [{"class_name": "__keras_tensor__", "config": {"shape": [null, 48, 48, 336], "dtype": "float16", "keras_history": ["block3c_expand_conv", 0, 0]}}], "kwargs": {"mask": null}}]}, {"class_name": "Activation", "config": {"name": "block3c_expand_activation", "trainable": false, "dtype": {"module": "keras", "class_name": "DTypePolicy", "config": {"name": "mixed_float16"}, "registered_name": null}, "activation": "silu"}, "name": "block3c_expand_activation", "inbound_nodes": [{"args": [{"class_name": "__keras_tensor__", "config": {"shape": [null, 48, 48, 336], "dtype": "float16", "keras_history": ["block3c_expand_bn", 0, 0]}}], "kwargs": {}}]}, {"class_name": "DepthwiseConv2D", "config": {"name": "block3c_dwconv", "trainable": false, "dtype": {"module": "keras", "class_name": "DTypePolicy", "config": {"name": "mixed_float16"}, "registered_name": null}, "depth_multiplier": 1, "kernel_size": [5, 5], "strides": [1, 1], "padding": "same", "data_format": "channels_last", "dilation_rate": [1, 1], "activation": "linear", "use_bias": false, "depthwise_initializer": {"module": "keras.initializers", "class_name": "VarianceScaling", "config": {"seed": null, "scale": 2.0, "mode": "fan_out", "distribution": "truncated_normal"}, "registered_name": null}, "bias_initializer": {"module": "keras.initializers", "class_name": "Zeros", "config": {}, "registered_name": null}, "depthwise_regularizer": null, "bias_regularizer": null, "activity_regularizer": null, "depthwise_constraint": null, "bias_constraint": null}, "name": "block3c_dwconv", "inbound_nodes": [{"args": [{"class_name": "__keras_tensor__", "config": {"shape": [null, 48, 48, 336], "dtype": "float16", "keras_history": ["block3c_expand_activation", 0, 0]}}], "kwargs": {}}]}, {"class_name": "BatchNormalization", "config": {"name": "block3c_bn", "trainable": false, "dtype": {"module": "keras", "class_name": "DTypePolicy", "config": {"name": "mixed_float16"}, "registered_name": null}, "axis": 3, "momentum": 0.99, "epsilon": 0.001, "center": true, "scale": true, "beta_initializer": {"module": "keras.initializers", "class_name": "Zeros", "config": {}, "registered_name": null}, "gamma_initializer": {"module": "keras.initializers", "class_name": "Ones", "config": {}, "registered_name": null}, "moving_mean_initializer": {"module": "keras.initializers", "class_name": "Zeros", "config": {}, "registered_name": null}, "moving_variance_initializer": {"module": "keras.initializers", "class_name": "Ones", "config": {}, "registered_name": null}, "beta_regularizer": null, "gamma_regularizer": null, "beta_constraint": null, "gamma_constraint": null, "synchronized": false}, "name": "block3c_bn", "inbound_nodes": [{"args": [{"class_name": "__keras_tensor__", "config": {"shape": [null, 48, 48, 336], "dtype": "float16", "keras_history": ["block3c_dwconv", 0, 0]}}], "kwargs": {"mask": null}}]}, {"class_name": "Activation", "config": {"name": "block3c_activation", "trainable": false, "dtype": {"module": "keras", "class_name": "DTypePolicy", "config": {"name": "mixed_float16"}, "registered_name": null}, "activation": "silu"}, "name": "block3c_activation", "inbound_nodes": [{"args": [{"class_name": "__keras_tensor__", "config": {"shape": [null, 48, 48, 336], "dtype": "float16", "keras_history": ["block3c_bn", 0, 0]}}], "kwargs": {}}]}, {"class_name": "GlobalAveragePooling2D", "config": {"name": "block3c_se_squeeze", "trainable": false, "dtype": {"module": "keras", "class_name": "DTypePolicy", "config": {"name": "mixed_float16"}, "registered_name": null}, "data_format": "channels_last", "keepdims": false}, "name": "block3c_se_squeeze", "inbound_nodes": [{"args": [{"class_name": "__keras_tensor__", "config": {"shape": [null, 48, 48, 336], "dtype": "float16", "keras_history": ["block3c_activation", 0, 0]}}], "kwargs": {}}]}, {"class_name": "Reshape", "config": {"name": "block3c_se_reshape", "trainable": false, "dtype": {"module": "keras", "class_name": "DTypePolicy", "config": {"name": "mixed_float16"}, "registered_name": null}, "target_shape": [1, 1, 336]}, "name": "block3c_se_reshape", "inbound_nodes": [{"args": [{"class_name": "__keras_tensor__", "config": {"shape": [null, 336], "dtype": "float16", "keras_history": ["block3c_se_squeeze", 0, 0]}}], "kwargs": {}}]}, {"class_name": "Conv2D", "config": {"name": "block3c_se_reduce", "trainable": false, "dtype": {"module": "keras", "class_name": "DTypePolicy", "config": {"name": "mixed_float16"}, "registered_name": null}, "filters": 14, "kernel_size": [1, 1], "strides": [1, 1], "padding": "same", "data_format": "channels_last", "dilation_rate": [1, 1], "groups": 1, "activation": "silu", "use_bias": true, "kernel_initializer": {"module": "keras.initializers", "class_name": "VarianceScaling", "config": {"seed": null, "scale": 2.0, "mode": "fan_out", "distribution": "truncated_normal"}, "registered_name": null}, "bias_initializer": {"module": "keras.initializers", "class_name": "Zeros", "config": {}, "registered_name": null}, "kernel_regularizer": null, "bias_regularizer": null, "activity_regularizer": null, "kernel_constraint": null, "bias_constraint": null}, "name": "block3c_se_reduce", "inbound_nodes": [{"args": [{"class_name": "__keras_tensor__", "config": {"shape": [null, 1, 1, 336], "dtype": "float16", "keras_history": ["block3c_se_reshape", 0, 0]}}], "kwargs": {}}]}, {"class_name": "Conv2D", "config": {"name": "block3c_se_expand", "trainable": false, "dtype": {"module": "keras", "class_name": "DTypePolicy", "config": {"name": "mixed_float16"}, "registered_name": null}, "filters": 336, "kernel_size": [1, 1], "strides": [1, 1], "padding": "same", "data_format": "channels_last", "dilation_rate": [1, 1], "groups": 1, "activation": "sigmoid", "use_bias": true, "kernel_initializer": {"module": "keras.initializers", "class_name": "VarianceScaling", "config": {"seed": null, "scale": 2.0, "mode": "fan_out", "distribution": "truncated_normal"}, "registered_name": null}, "bias_initializer": {"module": "keras.initializers", "class_name": "Zeros", "config": {}, "registered_name": null}, "kernel_regularizer": null, "bias_regularizer": null, "activity_regularizer": null, "kernel_constraint": null, "bias_constraint": null}, "name": "block3c_se_expand", "inbound_nodes": [{"args": [{"class_name": "__keras_tensor__", "config": {"shape": [null, 1, 1, 14], "dtype": "float16", "keras_history": ["block3c_se_reduce", 0, 0]}}], "kwargs": {}}]}, {"class_name": "Multiply", "config": {"name": "block3c_se_excite", "trainable": false, "dtype": {"module": "keras", "class_name": "DTypePolicy", "config": {"name": "mixed_float16"}, "registered_name": null}}, "name": "block3c_se_excite", "inbound_nodes": [{"args": [[{"class_name": "__keras_tensor__", "config": {"shape": [null, 48, 48, 336], "dtype": "float16", "keras_history": ["block3c_activation", 0, 0]}}, {"class_name": "__keras_tensor__", "config": {"shape": [null, 1, 1, 336], "dtype": "float16", "keras_history": ["block3c_se_expand", 0, 0]}}]], "kwargs": {}}]}, {"class_name": "Conv2D", "config": {"name": "block3c_project_conv", "trainable": false, "dtype": {"module": "keras", "class_name": "DTypePolicy", "config": {"name": "mixed_float16"}, "registered_name": null}, "filters": 56, "kernel_size": [1, 1], "strides": [1, 1], "padding": "same", "data_format": "channels_last", "dilation_rate": [1, 1], "groups": 1, "activation": "linear", "use_bias": false, "kernel_initializer": {"module": "keras.initializers", "class_name": "VarianceScaling", "config": {"seed": null, "scale": 2.0, "mode": "fan_out", "distribution": "truncated_normal"}, "registered_name": null}, "bias_initializer": {"module": "keras.initializers", "class_name": "Zeros", "config": {}, "registered_name": null}, "kernel_regularizer": null, "bias_regularizer": null, "activity_regularizer": null, "kernel_constraint": null, "bias_constraint": null}, "name": "block3c_project_conv", "inbound_nodes": [{"args": [{"class_name": "__keras_tensor__", "config": {"shape": [null, 48, 48, 336], "dtype": "float16", "keras_history": ["block3c_se_excite", 0, 0]}}], "kwargs": {}}]}, {"class_name": "BatchNormalization", "config": {"name": "block3c_project_bn", "trainable": false, "dtype": {"module": "keras", "class_name": "DTypePolicy", "config": {"name": "mixed_float16"}, "registered_name": null}, "axis": 3, "momentum": 0.99, "epsilon": 0.001, "center": true, "scale": true, "beta_initializer": {"module": "keras.initializers", "class_name": "Zeros", "config": {}, "registered_name": null}, "gamma_initializer": {"module": "keras.initializers", "class_name": "Ones", "config": {}, "registered_name": null}, "moving_mean_initializer": {"module": "keras.initializers", "class_name": "Zeros", "config": {}, "registered_name": null}, "moving_variance_initializer": {"module": "keras.initializers", "class_name": "Ones", "config": {}, "registered_name": null}, "beta_regularizer": null, "gamma_regularizer": null, "beta_constraint": null, "gamma_constraint": null, "synchronized": false}, "name": "block3c_project_bn", "inbound_nodes": [{"args": [{"class_name": "__keras_tensor__", "config": {"shape": [null, 48, 48, 56], "dtype": "float16", "keras_history": ["block3c_project_conv", 0, 0]}}], "kwargs": {"mask": null}}]}, {"class_name": "Dropout", "config": {"name": "block3c_drop", "trainable": false, "dtype": {"module": "keras", "class_name": "DTypePolicy", "config": {"name": "mixed_float16"}, "registered_name": null}, "rate": 0.05, "seed": null, "noise_shape": [null, 1, 1, 1]}, "name": "block3c_drop", "inbound_nodes": [{"args": [{"class_name": "__keras_tensor__", "config": {"shape": [null, 48, 48, 56], "dtype": "float16", "keras_history": ["block3c_project_bn", 0, 0]}}], "kwargs": {"training": false}}]}, {"class_name": "Add", "config": {"name": "block3c_add", "trainable": false, "dtype": {"module": "keras", "class_name": "DTypePolicy", "config": {"name": "mixed_float16"}, "registered_name": null}}, "name": "block3c_add", "inbound_nodes": [{"args": [[{"class_name": "__keras_tensor__", "config": {"shape": [null, 48, 48, 56], "dtype": "float16", "keras_history": ["block3c_drop", 0, 0]}}, {"class_name": "__keras_tensor__", "config": {"shape": [null, 48, 48, 56], "dtype": "float16", "keras_history": ["block3b_add", 0, 0]}}]], "kwargs": {}}]}, {"class_name": "Conv2D", "config": {"name": "block3d_expand_conv", "trainable": false, "dtype": {"module": "keras", "class_name": "DTypePolicy", "config": {"name": "mixed_float16"}, "registered_name": null}, "filters": 336, "kernel_size": [1, 1], "strides": [1, 1], "padding": "same", "data_format": "channels_last", "dilation_rate": [1, 1], "groups": 1, "activation": "linear", "use_bias": false, "kernel_initializer": {"module": "keras.initializers", "class_name": "VarianceScaling", "config": {"seed": null, "scale": 2.0, "mode": "fan_out", "distribution": "truncated_normal"}, "registered_name": null}, "bias_initializer": {"module": "keras.initializers", "class_name": "Zeros", "config": {}, "registered_name": null}, "kernel_regularizer": null, "bias_regularizer": null, "activity_regularizer": null, "kernel_constraint": null, "bias_constraint": null}, "name": "block3d_expand_conv", "inbound_nodes": [{"args": [{"class_name": "__keras_tensor__", "config": {"shape": [null, 48, 48, 56], "dtype": "float16", "keras_history": ["block3c_add", 0, 0]}}], "kwargs": {}}]}, {"class_name": "BatchNormalization", "config": {"name": "block3d_expand_bn", "trainable": false, "dtype": {"module": "keras", "class_name": "DTypePolicy", "config": {"name": "mixed_float16"}, "registered_name": null}, "axis": 3, "momentum": 0.99, "epsilon": 0.001, "center": true, "scale": true, "beta_initializer": {"module": "keras.initializers", "class_name": "Zeros", "config": {}, "registered_name": null}, "gamma_initializer": {"module": "keras.initializers", "class_name": "Ones", "config": {}, "registered_name": null}, "moving_mean_initializer": {"module": "keras.initializers", "class_name": "Zeros", "config": {}, "registered_name": null}, "moving_variance_initializer": {"module": "keras.initializers", "class_name": "Ones", "config": {}, "registered_name": null}, "beta_regularizer": null, "gamma_regularizer": null, "beta_constraint": null, "gamma_constraint": null, "synchronized": false}, "name": "block3d_expand_bn", "inbound_nodes": [{"args": [{"class_name": "__keras_tensor__", "config": {"shape": [null, 48, 48, 336], "dtype": "float16", "keras_history": ["block3d_expand_conv", 0, 0]}}], "kwargs": {"mask": null}}]}, {"class_name": "Activation", "config": {"name": "block3d_expand_activation", "trainable": false, "dtype": {"module": "keras", "class_name": "DTypePolicy", "config": {"name": "mixed_float16"}, "registered_name": null}, "activation": "silu"}, "name": "block3d_expand_activation", "inbound_nodes": [{"args": [{"class_name": "__keras_tensor__", "config": {"shape": [null, 48, 48, 336], "dtype": "float16", "keras_history": ["block3d_expand_bn", 0, 0]}}], "kwargs": {}}]}, {"class_name": "DepthwiseConv2D", "config": {"name": "block3d_dwconv", "trainable": false, "dtype": {"module": "keras", "class_name": "DTypePolicy", "config": {"name": "mixed_float16"}, "registered_name": null}, "depth_multiplier": 1, "kernel_size": [5, 5], "strides": [1, 1], "padding": "same", "data_format": "channels_last", "dilation_rate": [1, 1], "activation": "linear", "use_bias": false, "depthwise_initializer": {"module": "keras.initializers", "class_name": "VarianceScaling", "config": {"seed": null, "scale": 2.0, "mode": "fan_out", "distribution": "truncated_normal"}, "registered_name": null}, "bias_initializer": {"module": "keras.initializers", "class_name": "Zeros", "config": {}, "registered_name": null}, "depthwise_regularizer": null, "bias_regularizer": null, "activity_regularizer": null, "depthwise_constraint": null, "bias_constraint": null}, "name": "block3d_dwconv", "inbound_nodes": [{"args": [{"class_name": "__keras_tensor__", "config": {"shape": [null, 48, 48, 336], "dtype": "float16", "keras_history": ["block3d_expand_activation", 0, 0]}}], "kwargs": {}}]}, {"class_name": "BatchNormalization", "config": {"name": "block3d_bn", "trainable": false, "dtype": {"module": "keras", "class_name": "DTypePolicy", "config": {"name": "mixed_float16"}, "registered_name": null}, "axis": 3, "momentum": 0.99, "epsilon": 0.001, "center": true, "scale": true, "beta_initializer": {"module": "keras.initializers", "class_name": "Zeros", "config": {}, "registered_name": null}, "gamma_initializer": {"module": "keras.initializers", "class_name": "Ones", "config": {}, "registered_name": null}, "moving_mean_initializer": {"module": "keras.initializers", "class_name": "Zeros", "config": {}, "registered_name": null}, "moving_variance_initializer": {"module": "keras.initializers", "class_name": "Ones", "config": {}, "registered_name": null}, "beta_regularizer": null, "gamma_regularizer": null, "beta_constraint": null, "gamma_constraint": null, "synchronized": false}, "name": "block3d_bn", "inbound_nodes": [{"args": [{"class_name": "__keras_tensor__", "config": {"shape": [null, 48, 48, 336], "dtype": "float16", "keras_history": ["block3d_dwconv", 0, 0]}}], "kwargs": {"mask": null}}]}, {"class_name": "Activation", "config": {"name": "block3d_activation", "trainable": false, "dtype": {"module": "keras", "class_name": "DTypePolicy", "config": {"name": "mixed_float16"}, "registered_name": null}, "activation": "silu"}, "name": "block3d_activation", "inbound_nodes": [{"args": [{"class_name": "__keras_tensor__", "config": {"shape": [null, 48, 48, 336], "dtype": "float16", "keras_history": ["block3d_bn", 0, 0]}}], "kwargs": {}}]}, {"class_name": "GlobalAveragePooling2D", "config": {"name": "block3d_se_squeeze", "trainable": false, "dtype": {"module": "keras", "class_name": "DTypePolicy", "config": {"name": "mixed_float16"}, "registered_name": null}, "data_format": "channels_last", "keepdims": false}, "name": "block3d_se_squeeze", "inbound_nodes": [{"args": [{"class_name": "__keras_tensor__", "config": {"shape": [null, 48, 48, 336], "dtype": "float16", "keras_history": ["block3d_activation", 0, 0]}}], "kwargs": {}}]}, {"class_name": "Reshape", "config": {"name": "block3d_se_reshape", "trainable": false, "dtype": {"module": "keras", "class_name": "DTypePolicy", "config": {"name": "mixed_float16"}, "registered_name": null}, "target_shape": [1, 1, 336]}, "name": "block3d_se_reshape", "inbound_nodes": [{"args": [{"class_name": "__keras_tensor__", "config": {"shape": [null, 336], "dtype": "float16", "keras_history": ["block3d_se_squeeze", 0, 0]}}], "kwargs": {}}]}, {"class_name": "Conv2D", "config": {"name": "block3d_se_reduce", "trainable": false, "dtype": {"module": "keras", "class_name": "DTypePolicy", "config": {"name": "mixed_float16"}, "registered_name": null}, "filters": 14, "kernel_size": [1, 1], "strides": [1, 1], "padding": "same", "data_format": "channels_last", "dilation_rate": [1, 1], "groups": 1, "activation": "silu", "use_bias": true, "kernel_initializer": {"module": "keras.initializers", "class_name": "VarianceScaling", "config": {"seed": null, "scale": 2.0, "mode": "fan_out", "distribution": "truncated_normal"}, "registered_name": null}, "bias_initializer": {"module": "keras.initializers", "class_name": "Zeros", "config": {}, "registered_name": null}, "kernel_regularizer": null, "bias_regularizer": null, "activity_regularizer": null, "kernel_constraint": null, "bias_constraint": null}, "name": "block3d_se_reduce", "inbound_nodes": [{"args": [{"class_name": "__keras_tensor__", "config": {"shape": [null, 1, 1, 336], "dtype": "float16", "keras_history": ["block3d_se_reshape", 0, 0]}}], "kwargs": {}}]}, {"class_name": "Conv2D", "config": {"name": "block3d_se_expand", "trainable": false, "dtype": {"module": "keras", "class_name": "DTypePolicy", "config": {"name": "mixed_float16"}, "registered_name": null}, "filters": 336, "kernel_size": [1, 1], "strides": [1, 1], "padding": "same", "data_format": "channels_last", "dilation_rate": [1, 1], "groups": 1, "activation": "sigmoid", "use_bias": true, "kernel_initializer": {"module": "keras.initializers", "class_name": "VarianceScaling", "config": {"seed": null, "scale": 2.0, "mode": "fan_out", "distribution": "truncated_normal"}, "registered_name": null}, "bias_initializer": {"module": "keras.initializers", "class_name": "Zeros", "config": {}, "registered_name": null}, "kernel_regularizer": null, "bias_regularizer": null, "activity_regularizer": null, "kernel_constraint": null, "bias_constraint": null}, "name": "block3d_se_expand", "inbound_nodes": [{"args": [{"class_name": "__keras_tensor__", "config": {"shape": [null, 1, 1, 14], "dtype": "float16", "keras_history": ["block3d_se_reduce", 0, 0]}}], "kwargs": {}}]}, {"class_name": "Multiply", "config": {"name": "block3d_se_excite", "trainable": false, "dtype": {"module": "keras", "class_name": "DTypePolicy", "config": {"name": "mixed_float16"}, "registered_name": null}}, "name": "block3d_se_excite", "inbound_nodes": [{"args": [[{"class_name": "__keras_tensor__", "config": {"shape": [null, 48, 48, 336], "dtype": "float16", "keras_history": ["block3d_activation", 0, 0]}}, {"class_name": "__keras_tensor__", "config": {"shape": [null, 1, 1, 336], "dtype": "float16", "keras_history": ["block3d_se_expand", 0, 0]}}]], "kwargs": {}}]}, {"class_name": "Conv2D", "config": {"name": "block3d_project_conv", "trainable": false, "dtype": {"module": "keras", "class_name": "DTypePolicy", "config": {"name": "mixed_float16"}, "registered_name": null}, "filters": 56, "kernel_size": [1, 1], "strides": [1, 1], "padding": "same", "data_format": "channels_last", "dilation_rate": [1, 1], "groups": 1, "activation": "linear", "use_bias": false, "kernel_initializer": {"module": "keras.initializers", "class_name": "VarianceScaling", "config": {"seed": null, "scale": 2.0, "mode": "fan_out", "distribution": "truncated_normal"}, "registered_name": null}, "bias_initializer": {"module": "keras.initializers", "class_name": "Zeros", "config": {}, "registered_name": null}, "kernel_regularizer": null, "bias_regularizer": null, "activity_regularizer": null, "kernel_constraint": null, "bias_constraint": null}, "name": "block3d_project_conv", "inbound_nodes": [{"args": [{"class_name": "__keras_tensor__", "config": {"shape": [null, 48, 48, 336], "dtype": "float16", "keras_history": ["block3d_se_excite", 0, 0]}}], "kwargs": {}}]}, {"class_name": "BatchNormalization", "config": {"name": "block3d_project_bn", "trainable": false, "dtype": {"module": "keras", "class_name": "DTypePolicy", "config": {"name": "mixed_float16"}, "registered_name": null}, "axis": 3, "momentum": 0.99, "epsilon": 0.001, "center": true, "scale": true, "beta_initializer": {"module": "keras.initializers", "class_name": "Zeros", "config": {}, "registered_name": null}, "gamma_initializer": {"module": "keras.initializers", "class_name": "Ones", "config": {}, "registered_name": null}, "moving_mean_initializer": {"module": "keras.initializers", "class_name": "Zeros", "config": {}, "registered_name": null}, "moving_variance_initializer": {"module": "keras.initializers", "class_name": "Ones", "config": {}, "registered_name": null}, "beta_regularizer": null, "gamma_regularizer": null, "beta_constraint": null, "gamma_constraint": null, "synchronized": false}, "name": "block3d_project_bn", "inbound_nodes": [{"args": [{"class_name": "__keras_tensor__", "config": {"shape": [null, 48, 48, 56], "dtype": "float16", "keras_history": ["block3d_project_conv", 0, 0]}}], "kwargs": {"mask": null}}]}, {"class_name": "Dropout", "config": {"name": "block3d_drop", "trainable": false, "dtype": {"module": "keras", "class_name": "DTypePolicy", "config": {"name": "mixed_float16"}, "registered_name": null}, "rate": 0.05625, "seed": null, "noise_shape": [null, 1, 1, 1]}, "name": "block3d_drop", "inbound_nodes": [{"args": [{"class_name": "__keras_tensor__", "config": {"shape": [null, 48, 48, 56], "dtype": "float16", "keras_history": ["block3d_project_bn", 0, 0]}}], "kwargs": {"training": false}}]}, {"class_name": "Add", "config": {"name": "block3d_add", "trainable": false, "dtype": {"module": "keras", "class_name": "DTypePolicy", "config": {"name": "mixed_float16"}, "registered_name": null}}, "name": "block3d_add", "inbound_nodes": [{"args": [[{"class_name": "__keras_tensor__", "config": {"shape": [null, 48, 48, 56], "dtype": "float16", "keras_history": ["block3d_drop", 0, 0]}}, {"class_name": "__keras_tensor__", "config": {"shape": [null, 48, 48, 56], "dtype": "float16", "keras_history": ["block3c_add", 0, 0]}}]], "kwargs": {}}]}, {"class_name": "Conv2D", "config": {"name": "block4a_expand_conv", "trainable": false, "dtype": {"module": "keras", "class_name": "DTypePolicy", "config": {"name": "mixed_float16"}, "registered_name": null}, "filters": 336, "kernel_size": [1, 1], "strides": [1, 1], "padding": "same", "data_format": "channels_last", "dilation_rate": [1, 1], "groups": 1, "activation": "linear", "use_bias": false, "kernel_initializer": {"module": "keras.initializers", "class_name": "VarianceScaling", "config": {"seed": null, "scale": 2.0, "mode": "fan_out", "distribution": "truncated_normal"}, "registered_name": null}, "bias_initializer": {"module": "keras.initializers", "class_name": "Zeros", "config": {}, "registered_name": null}, "kernel_regularizer": null, "bias_regularizer": null, "activity_regularizer": null, "kernel_constraint": null, "bias_constraint": null}, "name": "block4a_expand_conv", "inbound_nodes": [{"args": [{"class_name": "__keras_tensor__", "config": {"shape": [null, 48, 48, 56], "dtype": "float16", "keras_history": ["block3d_add", 0, 0]}}], "kwargs": {}}]}, {"class_name": "BatchNormalization", "config": {"name": "block4a_expand_bn", "trainable": false, "dtype": {"module": "keras", "class_name": "DTypePolicy", "config": {"name": "mixed_float16"}, "registered_name": null}, "axis": 3, "momentum": 0.99, "epsilon": 0.001, "center": true, "scale": true, "beta_initializer": {"module": "keras.initializers", "class_name": "Zeros", "config": {}, "registered_name": null}, "gamma_initializer": {"module": "keras.initializers", "class_name": "Ones", "config": {}, "registered_name": null}, "moving_mean_initializer": {"module": "keras.initializers", "class_name": "Zeros", "config": {}, "registered_name": null}, "moving_variance_initializer": {"module": "keras.initializers", "class_name": "Ones", "config": {}, "registered_name": null}, "beta_regularizer": null, "gamma_regularizer": null, "beta_constraint": null, "gamma_constraint": null, "synchronized": false}, "name": "block4a_expand_bn", "inbound_nodes": [{"args": [{"class_name": "__keras_tensor__", "config": {"shape": [null, 48, 48, 336], "dtype": "float16", "keras_history": ["block4a_expand_conv", 0, 0]}}], "kwargs": {"mask": null}}]}, {"class_name": "Activation", "config": {"name": "block4a_expand_activation", "trainable": false, "dtype": {"module": "keras", "class_name": "DTypePolicy", "config": {"name": "mixed_float16"}, "registered_name": null}, "activation": "silu"}, "name": "block4a_expand_activation", "inbound_nodes": [{"args": [{"class_name": "__keras_tensor__", "config": {"shape": [null, 48, 48, 336], "dtype": "float16", "keras_history": ["block4a_expand_bn", 0, 0]}}], "kwargs": {}}]}, {"class_name": "ZeroPadding2D", "config": {"name": "block4a_dwconv_pad", "trainable": false, "dtype": {"module": "keras", "class_name": "DTypePolicy", "config": {"name": "mixed_float16"}, "registered_name": null}, "padding": [[0, 1], [0, 1]], "data_format": "channels_last"}, "name": "block4a_dwconv_pad", "inbound_nodes": [{"args": [{"class_name": "__keras_tensor__", "config": {"shape": [null, 48, 48, 336], "dtype": "float16", "keras_history": ["block4a_expand_activation", 0, 0]}}], "kwargs": {}}]}, {"class_name": "DepthwiseConv2D", "config": {"name": "block4a_dwconv", "trainable": false, "dtype": {"module": "keras", "class_name": "DTypePolicy", "config": {"name": "mixed_float16"}, "registered_name": null}, "depth_multiplier": 1, "kernel_size": [3, 3], "strides": [2, 2], "padding": "valid", "data_format": "channels_last", "dilation_rate": [1, 1], "activation": "linear", "use_bias": false, "depthwise_initializer": {"module": "keras.initializers", "class_name": "VarianceScaling", "config": {"seed": null, "scale": 2.0, "mode": "fan_out", "distribution": "truncated_normal"}, "registered_name": null}, "bias_initializer": {"module": "keras.initializers", "class_name": "Zeros", "config": {}, "registered_name": null}, "depthwise_regularizer": null, "bias_regularizer": null, "activity_regularizer": null, "depthwise_constraint": null, "bias_constraint": null}, "name": "block4a_dwconv", "inbound_nodes": [{"args": [{"class_name": "__keras_tensor__", "config": {"shape": [null, 49, 49, 336], "dtype": "float16", "keras_history": ["block4a_dwconv_pad", 0, 0]}}], "kwargs": {}}]}, {"class_name": "BatchNormalization", "config": {"name": "block4a_bn", "trainable": false, "dtype": {"module": "keras", "class_name": "DTypePolicy", "config": {"name": "mixed_float16"}, "registered_name": null}, "axis": 3, "momentum": 0.99, "epsilon": 0.001, "center": true, "scale": true, "beta_initializer": {"module": "keras.initializers", "class_name": "Zeros", "config": {}, "registered_name": null}, "gamma_initializer": {"module": "keras.initializers", "class_name": "Ones", "config": {}, "registered_name": null}, "moving_mean_initializer": {"module": "keras.initializers", "class_name": "Zeros", "config": {}, "registered_name": null}, "moving_variance_initializer": {"module": "keras.initializers", "class_name": "Ones", "config": {}, "registered_name": null}, "beta_regularizer": null, "gamma_regularizer": null, "beta_constraint": null, "gamma_constraint": null, "synchronized": false}, "name": "block4a_bn", "inbound_nodes": [{"args": [{"class_name": "__keras_tensor__", "config": {"shape": [null, 24, 24, 336], "dtype": "float16", "keras_history": ["block4a_dwconv", 0, 0]}}], "kwargs": {"mask": null}}]}, {"class_name": "Activation", "config": {"name": "block4a_activation", "trainable": false, "dtype": {"module": "keras", "class_name": "DTypePolicy", "config": {"name": "mixed_float16"}, "registered_name": null}, "activation": "silu"}, "name": "block4a_activation", "inbound_nodes": [{"args": [{"class_name": "__keras_tensor__", "config": {"shape": [null, 24, 24, 336], "dtype": "float16", "keras_history": ["block4a_bn", 0, 0]}}], "kwargs": {}}]}, {"class_name": "GlobalAveragePooling2D", "config": {"name": "block4a_se_squeeze", "trainable": false, "dtype": {"module": "keras", "class_name": "DTypePolicy", "config": {"name": "mixed_float16"}, "registered_name": null}, "data_format": "channels_last", "keepdims": false}, "name": "block4a_se_squeeze", "inbound_nodes": [{"args": [{"class_name": "__keras_tensor__", "config": {"shape": [null, 24, 24, 336], "dtype": "float16", "keras_history": ["block4a_activation", 0, 0]}}], "kwargs": {}}]}, {"class_name": "Reshape", "config": {"name": "block4a_se_reshape", "trainable": false, "dtype": {"module": "keras", "class_name": "DTypePolicy", "config": {"name": "mixed_float16"}, "registered_name": null}, "target_shape": [1, 1, 336]}, "name": "block4a_se_reshape", "inbound_nodes": [{"args": [{"class_name": "__keras_tensor__", "config": {"shape": [null, 336], "dtype": "float16", "keras_history": ["block4a_se_squeeze", 0, 0]}}], "kwargs": {}}]}, {"class_name": "Conv2D", "config": {"name": "block4a_se_reduce", "trainable": false, "dtype": {"module": "keras", "class_name": "DTypePolicy", "config": {"name": "mixed_float16"}, "registered_name": null}, "filters": 14, "kernel_size": [1, 1], "strides": [1, 1], "padding": "same", "data_format": "channels_last", "dilation_rate": [1, 1], "groups": 1, "activation": "silu", "use_bias": true, "kernel_initializer": {"module": "keras.initializers", "class_name": "VarianceScaling", "config": {"seed": null, "scale": 2.0, "mode": "fan_out", "distribution": "truncated_normal"}, "registered_name": null}, "bias_initializer": {"module": "keras.initializers", "class_name": "Zeros", "config": {}, "registered_name": null}, "kernel_regularizer": null, "bias_regularizer": null, "activity_regularizer": null, "kernel_constraint": null, "bias_constraint": null}, "name": "block4a_se_reduce", "inbound_nodes": [{"args": [{"class_name": "__keras_tensor__", "config": {"shape": [null, 1, 1, 336], "dtype": "float16", "keras_history": ["block4a_se_reshape", 0, 0]}}], "kwargs": {}}]}, {"class_name": "Conv2D", "config": {"name": "block4a_se_expand", "trainable": false, "dtype": {"module": "keras", "class_name": "DTypePolicy", "config": {"name": "mixed_float16"}, "registered_name": null}, "filters": 336, "kernel_size": [1, 1], "strides": [1, 1], "padding": "same", "data_format": "channels_last", "dilation_rate": [1, 1], "groups": 1, "activation": "sigmoid", "use_bias": true, "kernel_initializer": {"module": "keras.initializers", "class_name": "VarianceScaling", "config": {"seed": null, "scale": 2.0, "mode": "fan_out", "distribution": "truncated_normal"}, "registered_name": null}, "bias_initializer": {"module": "keras.initializers", "class_name": "Zeros", "config": {}, "registered_name": null}, "kernel_regularizer": null, "bias_regularizer": null, "activity_regularizer": null, "kernel_constraint": null, "bias_constraint": null}, "name": "block4a_se_expand", "inbound_nodes": [{"args": [{"class_name": "__keras_tensor__", "config": {"shape": [null, 1, 1, 14], "dtype": "float16", "keras_history": ["block4a_se_reduce", 0, 0]}}], "kwargs": {}}]}, {"class_name": "Multiply", "config": {"name": "block4a_se_excite", "trainable": false, "dtype": {"module": "keras", "class_name": "DTypePolicy", "config": {"name": "mixed_float16"}, "registered_name": null}}, "name": "block4a_se_excite", "inbound_nodes": [{"args": [[{"class_name": "__keras_tensor__", "config": {"shape": [null, 24, 24, 336], "dtype": "float16", "keras_history": ["block4a_activation", 0, 0]}}, {"class_name": "__keras_tensor__", "config": {"shape": [null, 1, 1, 336], "dtype": "float16", "keras_history": ["block4a_se_expand", 0, 0]}}]], "kwargs": {}}]}, {"class_name": "Conv2D", "config": {"name": "block4a_project_conv", "trainable": false, "dtype": {"module": "keras", "class_name": "DTypePolicy", "config": {"name": "mixed_float16"}, "registered_name": null}, "filters": 112, "kernel_size": [1, 1], "strides": [1, 1], "padding": "same", "data_format": "channels_last", "dilation_rate": [1, 1], "groups": 1, "activation": "linear", "use_bias": false, "kernel_initializer": {"module": "keras.initializers", "class_name": "VarianceScaling", "config": {"seed": null, "scale": 2.0, "mode": "fan_out", "distribution": "truncated_normal"}, "registered_name": null}, "bias_initializer": {"module": "keras.initializers", "class_name": "Zeros", "config": {}, "registered_name": null}, "kernel_regularizer": null, "bias_regularizer": null, "activity_regularizer": null, "kernel_constraint": null, "bias_constraint": null}, "name": "block4a_project_conv", "inbound_nodes": [{"args": [{"class_name": "__keras_tensor__", "config": {"shape": [null, 24, 24, 336], "dtype": "float16", "keras_history": ["block4a_se_excite", 0, 0]}}], "kwargs": {}}]}, {"class_name": "BatchNormalization", "config": {"name": "block4a_project_bn", "trainable": false, "dtype": {"module": "keras", "class_name": "DTypePolicy", "config": {"name": "mixed_float16"}, "registered_name": null}, "axis": 3, "momentum": 0.99, "epsilon": 0.001, "center": true, "scale": true, "beta_initializer": {"module": "keras.initializers", "class_name": "Zeros", "config": {}, "registered_name": null}, "gamma_initializer": {"module": "keras.initializers", "class_name": "Ones", "config": {}, "registered_name": null}, "moving_mean_initializer": {"module": "keras.initializers", "class_name": "Zeros", "config": {}, "registered_name": null}, "moving_variance_initializer": {"module": "keras.initializers", "class_name": "Ones", "config": {}, "registered_name": null}, "beta_regularizer": null, "gamma_regularizer": null, "beta_constraint": null, "gamma_constraint": null, "synchronized": false}, "name": "block4a_project_bn", "inbound_nodes": [{"args": [{"class_name": "__keras_tensor__", "config": {"shape": [null, 24, 24, 112], "dtype": "float16", "keras_history": ["block4a_project_conv", 0, 0]}}], "kwargs": {"mask": null}}]}, {"class_name": "Conv2D", "config": {"name": "block4b_expand_conv", "trainable": false, "dtype": {"module": "keras", "class_name": "DTypePolicy", "config": {"name": "mixed_float16"}, "registered_name": null}, "filters": 672, "kernel_size": [1, 1], "strides": [1, 1], "padding": "same", "data_format": "channels_last", "dilation_rate": [1, 1], "groups": 1, "activation": "linear", "use_bias": false, "kernel_initializer": {"module": "keras.initializers", "class_name": "VarianceScaling", "config": {"seed": null, "scale": 2.0, "mode": "fan_out", "distribution": "truncated_normal"}, "registered_name": null}, "bias_initializer": {"module": "keras.initializers", "class_name": "Zeros", "config": {}, "registered_name": null}, "kernel_regularizer": null, "bias_regularizer": null, "activity_regularizer": null, "kernel_constraint": null, "bias_constraint": null}, "name": "block4b_expand_conv", "inbound_nodes": [{"args": [{"class_name": "__keras_tensor__", "config": {"shape": [null, 24, 24, 112], "dtype": "float16", "keras_history": ["block4a_project_bn", 0, 0]}}], "kwargs": {}}]}, {"class_name": "BatchNormalization", "config": {"name": "block4b_expand_bn", "trainable": false, "dtype": {"module": "keras", "class_name": "DTypePolicy", "config": {"name": "mixed_float16"}, "registered_name": null}, "axis": 3, "momentum": 0.99, "epsilon": 0.001, "center": true, "scale": true, "beta_initializer": {"module": "keras.initializers", "class_name": "Zeros", "config": {}, "registered_name": null}, "gamma_initializer": {"module": "keras.initializers", "class_name": "Ones", "config": {}, "registered_name": null}, "moving_mean_initializer": {"module": "keras.initializers", "class_name": "Zeros", "config": {}, "registered_name": null}, "moving_variance_initializer": {"module": "keras.initializers", "class_name": "Ones", "config": {}, "registered_name": null}, "beta_regularizer": null, "gamma_regularizer": null, "beta_constraint": null, "gamma_constraint": null, "synchronized": false}, "name": "block4b_expand_bn", "inbound_nodes": [{"args": [{"class_name": "__keras_tensor__", "config": {"shape": [null, 24, 24, 672], "dtype": "float16", "keras_history": ["block4b_expand_conv", 0, 0]}}], "kwargs": {"mask": null}}]}, {"class_name": "Activation", "config": {"name": "block4b_expand_activation", "trainable": false, "dtype": {"module": "keras", "class_name": "DTypePolicy", "config": {"name": "mixed_float16"}, "registered_name": null}, "activation": "silu"}, "name": "block4b_expand_activation", "inbound_nodes": [{"args": [{"class_name": "__keras_tensor__", "config": {"shape": [null, 24, 24, 672], "dtype": "float16", "keras_history": ["block4b_expand_bn", 0, 0]}}], "kwargs": {}}]}, {"class_name": "DepthwiseConv2D", "config": {"name": "block4b_dwconv", "trainable": false, "dtype": {"module": "keras", "class_name": "DTypePolicy", "config": {"name": "mixed_float16"}, "registered_name": null}, "depth_multiplier": 1, "kernel_size": [3, 3], "strides": [1, 1], "padding": "same", "data_format": "channels_last", "dilation_rate": [1, 1], "activation": "linear", "use_bias": false, "depthwise_initializer": {"module": "keras.initializers", "class_name": "VarianceScaling", "config": {"seed": null, "scale": 2.0, "mode": "fan_out", "distribution": "truncated_normal"}, "registered_name": null}, "bias_initializer": {"module": "keras.initializers", "class_name": "Zeros", "config": {}, "registered_name": null}, "depthwise_regularizer": null, "bias_regularizer": null, "activity_regularizer": null, "depthwise_constraint": null, "bias_constraint": null}, "name": "block4b_dwconv", "inbound_nodes": [{"args": [{"class_name": "__keras_tensor__", "config": {"shape": [null, 24, 24, 672], "dtype": "float16", "keras_history": ["block4b_expand_activation", 0, 0]}}], "kwargs": {}}]}, {"class_name": "BatchNormalization", "config": {"name": "block4b_bn", "trainable": false, "dtype": {"module": "keras", "class_name": "DTypePolicy", "config": {"name": "mixed_float16"}, "registered_name": null}, "axis": 3, "momentum": 0.99, "epsilon": 0.001, "center": true, "scale": true, "beta_initializer": {"module": "keras.initializers", "class_name": "Zeros", "config": {}, "registered_name": null}, "gamma_initializer": {"module": "keras.initializers", "class_name": "Ones", "config": {}, "registered_name": null}, "moving_mean_initializer": {"module": "keras.initializers", "class_name": "Zeros", "config": {}, "registered_name": null}, "moving_variance_initializer": {"module": "keras.initializers", "class_name": "Ones", "config": {}, "registered_name": null}, "beta_regularizer": null, "gamma_regularizer": null, "beta_constraint": null, "gamma_constraint": null, "synchronized": false}, "name": "block4b_bn", "inbound_nodes": [{"args": [{"class_name": "__keras_tensor__", "config": {"shape": [null, 24, 24, 672], "dtype": "float16", "keras_history": ["block4b_dwconv", 0, 0]}}], "kwargs": {"mask": null}}]}, {"class_name": "Activation", "config": {"name": "block4b_activation", "trainable": false, "dtype": {"module": "keras", "class_name": "DTypePolicy", "config": {"name": "mixed_float16"}, "registered_name": null}, "activation": "silu"}, "name": "block4b_activation", "inbound_nodes": [{"args": [{"class_name": "__keras_tensor__", "config": {"shape": [null, 24, 24, 672], "dtype": "float16", "keras_history": ["block4b_bn", 0, 0]}}], "kwargs": {}}]}, {"class_name": "GlobalAveragePooling2D", "config": {"name": "block4b_se_squeeze", "trainable": false, "dtype": {"module": "keras", "class_name": "DTypePolicy", "config": {"name": "mixed_float16"}, "registered_name": null}, "data_format": "channels_last", "keepdims": false}, "name": "block4b_se_squeeze", "inbound_nodes": [{"args": [{"class_name": "__keras_tensor__", "config": {"shape": [null, 24, 24, 672], "dtype": "float16", "keras_history": ["block4b_activation", 0, 0]}}], "kwargs": {}}]}, {"class_name": "Reshape", "config": {"name": "block4b_se_reshape", "trainable": false, "dtype": {"module": "keras", "class_name": "DTypePolicy", "config": {"name": "mixed_float16"}, "registered_name": null}, "target_shape": [1, 1, 672]}, "name": "block4b_se_reshape", "inbound_nodes": [{"args": [{"class_name": "__keras_tensor__", "config": {"shape": [null, 672], "dtype": "float16", "keras_history": ["block4b_se_squeeze", 0, 0]}}], "kwargs": {}}]}, {"class_name": "Conv2D", "config": {"name": "block4b_se_reduce", "trainable": false, "dtype": {"module": "keras", "class_name": "DTypePolicy", "config": {"name": "mixed_float16"}, "registered_name": null}, "filters": 28, "kernel_size": [1, 1], "strides": [1, 1], "padding": "same", "data_format": "channels_last", "dilation_rate": [1, 1], "groups": 1, "activation": "silu", "use_bias": true, "kernel_initializer": {"module": "keras.initializers", "class_name": "VarianceScaling", "config": {"seed": null, "scale": 2.0, "mode": "fan_out", "distribution": "truncated_normal"}, "registered_name": null}, "bias_initializer": {"module": "keras.initializers", "class_name": "Zeros", "config": {}, "registered_name": null}, "kernel_regularizer": null, "bias_regularizer": null, "activity_regularizer": null, "kernel_constraint": null, "bias_constraint": null}, "name": "block4b_se_reduce", "inbound_nodes": [{"args": [{"class_name": "__keras_tensor__", "config": {"shape": [null, 1, 1, 672], "dtype": "float16", "keras_history": ["block4b_se_reshape", 0, 0]}}], "kwargs": {}}]}, {"class_name": "Conv2D", "config": {"name": "block4b_se_expand", "trainable": false, "dtype": {"module": "keras", "class_name": "DTypePolicy", "config": {"name": "mixed_float16"}, "registered_name": null}, "filters": 672, "kernel_size": [1, 1], "strides": [1, 1], "padding": "same", "data_format": "channels_last", "dilation_rate": [1, 1], "groups": 1, "activation": "sigmoid", "use_bias": true, "kernel_initializer": {"module": "keras.initializers", "class_name": "VarianceScaling", "config": {"seed": null, "scale": 2.0, "mode": "fan_out", "distribution": "truncated_normal"}, "registered_name": null}, "bias_initializer": {"module": "keras.initializers", "class_name": "Zeros", "config": {}, "registered_name": null}, "kernel_regularizer": null, "bias_regularizer": null, "activity_regularizer": null, "kernel_constraint": null, "bias_constraint": null}, "name": "block4b_se_expand", "inbound_nodes": [{"args": [{"class_name": "__keras_tensor__", "config": {"shape": [null, 1, 1, 28], "dtype": "float16", "keras_history": ["block4b_se_reduce", 0, 0]}}], "kwargs": {}}]}, {"class_name": "Multiply", "config": {"name": "block4b_se_excite", "trainable": false, "dtype": {"module": "keras", "class_name": "DTypePolicy", "config": {"name": "mixed_float16"}, "registered_name": null}}, "name": "block4b_se_excite", "inbound_nodes": [{"args": [[{"class_name": "__keras_tensor__", "config": {"shape": [null, 24, 24, 672], "dtype": "float16", "keras_history": ["block4b_activation", 0, 0]}}, {"class_name": "__keras_tensor__", "config": {"shape": [null, 1, 1, 672], "dtype": "float16", "keras_history": ["block4b_se_expand", 0, 0]}}]], "kwargs": {}}]}, {"class_name": "Conv2D", "config": {"name": "block4b_project_conv", "trainable": false, "dtype": {"module": "keras", "class_name": "DTypePolicy", "config": {"name": "mixed_float16"}, "registered_name": null}, "filters": 112, "kernel_size": [1, 1], "strides": [1, 1], "padding": "same", "data_format": "channels_last", "dilation_rate": [1, 1], "groups": 1, "activation": "linear", "use_bias": false, "kernel_initializer": {"module": "keras.initializers", "class_name": "VarianceScaling", "config": {"seed": null, "scale": 2.0, "mode": "fan_out", "distribution": "truncated_normal"}, "registered_name": null}, "bias_initializer": {"module": "keras.initializers", "class_name": "Zeros", "config": {}, "registered_name": null}, "kernel_regularizer": null, "bias_regularizer": null, "activity_regularizer": null, "kernel_constraint": null, "bias_constraint": null}, "name": "block4b_project_conv", "inbound_nodes": [{"args": [{"class_name": "__keras_tensor__", "config": {"shape": [null, 24, 24, 672], "dtype": "float16", "keras_history": ["block4b_se_excite", 0, 0]}}], "kwargs": {}}]}, {"class_name": "BatchNormalization", "config": {"name": "block4b_project_bn", "trainable": false, "dtype": {"module": "keras", "class_name": "DTypePolicy", "config": {"name": "mixed_float16"}, "registered_name": null}, "axis": 3, "momentum": 0.99, "epsilon": 0.001, "center": true, "scale": true, "beta_initializer": {"module": "keras.initializers", "class_name": "Zeros", "config": {}, "registered_name": null}, "gamma_initializer": {"module": "keras.initializers", "class_name": "Ones", "config": {}, "registered_name": null}, "moving_mean_initializer": {"module": "keras.initializers", "class_name": "Zeros", "config": {}, "registered_name": null}, "moving_variance_initializer": {"module": "keras.initializers", "class_name": "Ones", "config": {}, "registered_name": null}, "beta_regularizer": null, "gamma_regularizer": null, "beta_constraint": null, "gamma_constraint": null, "synchronized": false}, "name": "block4b_project_bn", "inbound_nodes": [{"args": [{"class_name": "__keras_tensor__", "config": {"shape": [null, 24, 24, 112], "dtype": "float16", "keras_history": ["block4b_project_conv", 0, 0]}}], "kwargs": {"mask": null}}]}, {"class_name": "Dropout", "config": {"name": "block4b_drop", "trainable": false, "dtype": {"module": "keras", "class_name": "DTypePolicy", "config": {"name": "mixed_float16"}, "registered_name": null}, "rate": 0.06875, "seed": null, "noise_shape": [null, 1, 1, 1]}, "name": "block4b_drop", "inbound_nodes": [{"args": [{"class_name": "__keras_tensor__", "config": {"shape": [null, 24, 24, 112], "dtype": "float16", "keras_history": ["block4b_project_bn", 0, 0]}}], "kwargs": {"training": false}}]}, {"class_name": "Add", "config": {"name": "block4b_add", "trainable": false, "dtype": {"module": "keras", "class_name": "DTypePolicy", "config": {"name": "mixed_float16"}, "registered_name": null}}, "name": "block4b_add", "inbound_nodes": [{"args": [[{"class_name": "__keras_tensor__", "config": {"shape": [null, 24, 24, 112], "dtype": "float16", "keras_history": ["block4b_drop", 0, 0]}}, {"class_name": "__keras_tensor__", "config": {"shape": [null, 24, 24, 112], "dtype": "float16", "keras_history": ["block4a_project_bn", 0, 0]}}]], "kwargs": {}}]}, {"class_name": "Conv2D", "config": {"name": "block4c_expand_conv", "trainable": false, "dtype": {"module": "keras", "class_name": "DTypePolicy", "config": {"name": "mixed_float16"}, "registered_name": null}, "filters": 672, "kernel_size": [1, 1], "strides": [1, 1], "padding": "same", "data_format": "channels_last", "dilation_rate": [1, 1], "groups": 1, "activation": "linear", "use_bias": false, "kernel_initializer": {"module": "keras.initializers", "class_name": "VarianceScaling", "config": {"seed": null, "scale": 2.0, "mode": "fan_out", "distribution": "truncated_normal"}, "registered_name": null}, "bias_initializer": {"module": "keras.initializers", "class_name": "Zeros", "config": {}, "registered_name": null}, "kernel_regularizer": null, "bias_regularizer": null, "activity_regularizer": null, "kernel_constraint": null, "bias_constraint": null}, "name": "block4c_expand_conv", "inbound_nodes": [{"args": [{"class_name": "__keras_tensor__", "config": {"shape": [null, 24, 24, 112], "dtype": "float16", "keras_history": ["block4b_add", 0, 0]}}], "kwargs": {}}]}, {"class_name": "BatchNormalization", "config": {"name": "block4c_expand_bn", "trainable": false, "dtype": {"module": "keras", "class_name": "DTypePolicy", "config": {"name": "mixed_float16"}, "registered_name": null}, "axis": 3, "momentum": 0.99, "epsilon": 0.001, "center": true, "scale": true, "beta_initializer": {"module": "keras.initializers", "class_name": "Zeros", "config": {}, "registered_name": null}, "gamma_initializer": {"module": "keras.initializers", "class_name": "Ones", "config": {}, "registered_name": null}, "moving_mean_initializer": {"module": "keras.initializers", "class_name": "Zeros", "config": {}, "registered_name": null}, "moving_variance_initializer": {"module": "keras.initializers", "class_name": "Ones", "config": {}, "registered_name": null}, "beta_regularizer": null, "gamma_regularizer": null, "beta_constraint": null, "gamma_constraint": null, "synchronized": false}, "name": "block4c_expand_bn", "inbound_nodes": [{"args": [{"class_name": "__keras_tensor__", "config": {"shape": [null, 24, 24, 672], "dtype": "float16", "keras_history": ["block4c_expand_conv", 0, 0]}}], "kwargs": {"mask": null}}]}, {"class_name": "Activation", "config": {"name": "block4c_expand_activation", "trainable": false, "dtype": {"module": "keras", "class_name": "DTypePolicy", "config": {"name": "mixed_float16"}, "registered_name": null}, "activation": "silu"}, "name": "block4c_expand_activation", "inbound_nodes": [{"args": [{"class_name": "__keras_tensor__", "config": {"shape": [null, 24, 24, 672], "dtype": "float16", "keras_history": ["block4c_expand_bn", 0, 0]}}], "kwargs": {}}]}, {"class_name": "DepthwiseConv2D", "config": {"name": "block4c_dwconv", "trainable": false, "dtype": {"module": "keras", "class_name": "DTypePolicy", "config": {"name": "mixed_float16"}, "registered_name": null}, "depth_multiplier": 1, "kernel_size": [3, 3], "strides": [1, 1], "padding": "same", "data_format": "channels_last", "dilation_rate": [1, 1], "activation": "linear", "use_bias": false, "depthwise_initializer": {"module": "keras.initializers", "class_name": "VarianceScaling", "config": {"seed": null, "scale": 2.0, "mode": "fan_out", "distribution": "truncated_normal"}, "registered_name": null}, "bias_initializer": {"module": "keras.initializers", "class_name": "Zeros", "config": {}, "registered_name": null}, "depthwise_regularizer": null, "bias_regularizer": null, "activity_regularizer": null, "depthwise_constraint": null, "bias_constraint": null}, "name": "block4c_dwconv", "inbound_nodes": [{"args": [{"class_name": "__keras_tensor__", "config": {"shape": [null, 24, 24, 672], "dtype": "float16", "keras_history": ["block4c_expand_activation", 0, 0]}}], "kwargs": {}}]}, {"class_name": "BatchNormalization", "config": {"name": "block4c_bn", "trainable": false, "dtype": {"module": "keras", "class_name": "DTypePolicy", "config": {"name": "mixed_float16"}, "registered_name": null}, "axis": 3, "momentum": 0.99, "epsilon": 0.001, "center": true, "scale": true, "beta_initializer": {"module": "keras.initializers", "class_name": "Zeros", "config": {}, "registered_name": null}, "gamma_initializer": {"module": "keras.initializers", "class_name": "Ones", "config": {}, "registered_name": null}, "moving_mean_initializer": {"module": "keras.initializers", "class_name": "Zeros", "config": {}, "registered_name": null}, "moving_variance_initializer": {"module": "keras.initializers", "class_name": "Ones", "config": {}, "registered_name": null}, "beta_regularizer": null, "gamma_regularizer": null, "beta_constraint": null, "gamma_constraint": null, "synchronized": false}, "name": "block4c_bn", "inbound_nodes": [{"args": [{"class_name": "__keras_tensor__", "config": {"shape": [null, 24, 24, 672], "dtype": "float16", "keras_history": ["block4c_dwconv", 0, 0]}}], "kwargs": {"mask": null}}]}, {"class_name": "Activation", "config": {"name": "block4c_activation", "trainable": false, "dtype": {"module": "keras", "class_name": "DTypePolicy", "config": {"name": "mixed_float16"}, "registered_name": null}, "activation": "silu"}, "name": "block4c_activation", "inbound_nodes": [{"args": [{"class_name": "__keras_tensor__", "config": {"shape": [null, 24, 24, 672], "dtype": "float16", "keras_history": ["block4c_bn", 0, 0]}}], "kwargs": {}}]}, {"class_name": "GlobalAveragePooling2D", "config": {"name": "block4c_se_squeeze", "trainable": false, "dtype": {"module": "keras", "class_name": "DTypePolicy", "config": {"name": "mixed_float16"}, "registered_name": null}, "data_format": "channels_last", "keepdims": false}, "name": "block4c_se_squeeze", "inbound_nodes": [{"args": [{"class_name": "__keras_tensor__", "config": {"shape": [null, 24, 24, 672],…
top_activation", 0, 0]}}], "kwargs": {}}]}, {"class_name": "Dropout", "config": {"name": "dropout_3", "trainable": true, "dtype": {"module": "keras", "class_name": "DTypePolicy", "config": {"name": "mixed_float16"}, "registered_name": null}, "rate": 0.3, "seed": null, "noise_shape": null}, "name": "dropout_3", "inbound_nodes": [{"args": [{"class_name": "__keras_tensor__", "config": {"shape": [null, 1792], "dtype": "float16", "keras_history": ["global_average_pooling2d_3", 0, 0]}}], "kwargs": {"training": false}}]}, {"class_name": "Dense", "config": {"name": "dense_3", "trainable": true, "dtype": {"module": "keras", "class_name": "DTypePolicy", "config": {"name": "float32"}, "registered_name": null}, "units": 4, "activation": "softmax", "use_bias": true, "kernel_initializer": {"module": "keras.initializers", "class_name": "GlorotUniform", "config": {"seed": null}, "registered_name": null}, "bias_initializer": {"module": "keras.initializers", "class_name": "Zeros", "config": {}, "registered_name": null}, "kernel_regularizer": null, "bias_regularizer": null, "kernel_constraint": null, "bias_constraint": null}, "name": "dense_3", "inbound_nodes": [{"args": [{"class_name": "__keras_tensor__", "config": {"shape": [null, 1792], "dtype": "float16", "keras_history": ["dropout_3", 0, 0]}}], "kwargs": {}}]}], "input_layers": [["input_layer_4", 0, 0]], "output_layers": [["dense_3", 0, 0]]}}, "training_config": {"loss": "sparse_categorical_crossentropy", "loss_weights": null, "metrics": ["accuracy"], "weighted_metrics": null, "run_eagerly": false, "steps_per_execution": 1, "jit_compile": true, "optimizer_config": {"class_name": "LossScaleOptimizer", "config": {"name": "loss_scale_optimizer", "weight_decay": null, "clipnorm": null, "global_clipnorm": null, "clipvalue": null, "use_ema": false, "ema_momentum": 0.99, "ema_overwrite_frequency": null, "loss_scale_factor": null, "gradient_accumulation_steps": null, "inner_optimizer": {"module": "keras.optimizers", "class_name": "Adam", "config": {"name": "adam", "learning_rate": 4.999999873689376e-06, "weight_decay": null, "clipnorm": null, "global_clipnorm": null, "clipvalue": null, "use_ema": false, "ema_momentum": 0.99, "ema_overwrite_frequency": null, "loss_scale_factor": null, "gradient_accumulation_steps": null, "beta_1": 0.9, "beta_2": 0.999, "epsilon": 1e-07, "amsgrad": false}, "registered_name": null}, "initial_scale": 32768.0, "dynamic_growth_steps": 2000}}}}, "weightsManifest": [{"paths": ["group1-shard1of17.bin", "group1-shard2of17.bin", "group1-shard3of17.bin", "group1-shard4of17.bin", "group1-shard5of17.bin", "group1-shard6of17.bin", "group1-shard7of17.bin", "group1-shard8of17.bin", "group1-shard9of17.bin", "group1-shard10of17.bin", "group1-shard11of17.bin", "group1-shard12of17.bin", "group1-shard13of17.bin", "group1-shard14of17.bin", "group1-shard15of17.bin", "group1-shard16of17.bin", "group1-shard17of17.bin"], "weights": [{"name": "block1a_bn/gamma", "shape": [48], "dtype": "float32"}, {"name": "block1a_bn/beta", "shape": [48], "dtype": "float32"}, {"name": "block1a_bn/moving_mean", "shape": [48], "dtype": "float32"}, {"name": "block1a_bn/moving_variance", "shape": [48], "dtype": "float32"}, {"name": "block1a_dwconv/kernel", "shape": [3, 3, 48, 1], "dtype": "float32"}, {"name": "block1a_project_bn/gamma", "shape": [24], "dtype": "float32"}, {"name": "block1a_project_bn/beta", "shape": [24], "dtype": "float32"}, {"name": "block1a_project_bn/moving_mean", "shape": [24], "dtype": "float32"}, {"name": "block1a_project_bn/moving_variance", "shape": [24], "dtype": "float32"}, {"name": "block1a_project_conv/kernel", "shape": [1, 1, 48, 24], "dtype": "float32"}, {"name": "block1a_se_expand/kernel", "shape": [1, 1, 12, 48], "dtype": "float32"}, {"name": "block1a_se_expand/bias", "shape": [48], "dtype": "float32"}, {"name": "block1a_se_reduce/kernel", "shape": [1, 1, 48, 12], "dtype": "float32"}, {"name": "block1a_se_reduce/bias", "shape": [12], "dtype": "float32"}, {"name": "block1b_bn/gamma", "shape": [24], "dtype": "float32"}, {"name": "block1b_bn/beta", "shape": [24], "dtype": "float32"}, {"name": "block1b_bn/moving_mean", "shape": [24], "dtype": "float32"}, {"name": "block1b_bn/moving_variance", "shape": [24], "dtype": "float32"}, {"name": "block1b_dwconv/kernel", "shape": [3, 3, 24, 1], "dtype": "float32"}, {"name": "block1b_project_bn/gamma", "shape": [24], "dtype": "float32"}, {"name": "block1b_project_bn/beta", "shape": [24], "dtype": "float32"}, {"name": "block1b_project_bn/moving_mean", "shape": [24], "dtype": "float32"}, {"name": "block1b_project_bn/moving_variance", "shape": [24], "dtype": "float32"}, {"name": "block1b_project_conv/kernel", "shape": [1, 1, 24, 24], "dtype": "float32"}, {"name": "block1b_se_expand/kernel", "shape": [1, 1, 6, 24], "dtype": "float32"}, {"name": "block1b_se_expand/bias", "shape": [24], "dtype": "float32"}, {"name": "block1b_se_reduce/kernel", "shape": [1, 1, 24, 6], "dtype": "float32"}, {"name": "block1b_se_reduce/bias", "shape": [6], "dtype": "float32"}, {"name": "block2a_bn/gamma", "shape": [144], "dtype": "float32"}, {"name": "block2a_bn/beta", "shape": [144], "dtype": "float32"}, {"name": "block2a_bn/moving_mean", "shape": [144], "dtype": "float32"}, {"name": "block2a_bn/moving_variance", "shape": [144], "dtype": "float32"}, {"name": "block2a_dwconv/kernel", "shape": [3, 3, 144, 1], "dtype": "float32"}, {"name": "block2a_expand_bn/gamma", "shape": [144], "dtype": "float32"}, {"name": "block2a_expand_bn/beta", "shape": [144], "dtype": "float32"}, {"name": "block2a_expand_bn/moving_mean", "shape": [144], "dtype": "float32"}, {"name": "block2a_expand_bn/moving_variance", "shape": [144], "dtype": "float32"}, {"name": "block2a_expand_conv/kernel", "shape": [1, 1, 24, 144], "dtype": "float32"}, {"name": "block2a_project_bn/gamma", "shape": [32], "dtype": "float32"}, {"name": "block2a_project_bn/beta", "shape": [32], "dtype": "float32"}, {"name": "block2a_project_bn/moving_mean", "shape": [32], "dtype": "float32"}, {"name": "block2a_project_bn/moving_variance", "shape": [32], "dtype": "float32"}, {"name": "block2a_project_conv/kernel", "shape": [1, 1, 144, 32], "dtype": "float32"}, {"name": "block2a_se_expand/kernel", "shape": [1, 1, 6, 144], "dtype": "float32"}, {"name": "block2a_se_expand/bias", "shape": [144], "dtype": "float32"}, {"name": "block2a_se_reduce/kernel", "shape": [1, 1, 144, 6], "dtype": "float32"}, {"name": "block2a_se_reduce/bias", "shape": [6], "dtype": "float32"}, {"name": "block2b_bn/gamma", "shape": [192], "dtype": "float32"}, {"name": "block2b_bn/beta", "shape": [192], "dtype": "float32"}, {"name": "block2b_bn/moving_mean", "shape": [192], "dtype": "float32"}, {"name": "block2b_bn/moving_variance", "shape": [192], "dtype": "float32"}, {"name": "block2b_dwconv/kernel", "shape": [3, 3, 192, 1], "dtype": "float32"}, {"name": "block2b_expand_bn/gamma", "shape": [192], "dtype": "float32"}, {"name": "block2b_expand_bn/beta", "shape": [192], "dtype": "float32"}, {"name": "block2b_expand_bn/moving_mean", "shape": [192], "dtype": "float32"}, {"name": "block2b_expand_bn/moving_variance", "shape": [192], "dtype": "float32"}, {"name": "block2b_expand_conv/kernel", "shape": [1, 1, 32, 192], "dtype": "float32"}, {"name": "block2b_project_bn/gamma", "shape": [32], "dtype": "float32"}, {"name": "block2b_project_bn/beta", "shape": [32], "dtype": "float32"}, {"name": "block2b_project_bn/moving_mean", "shape": [32], "dtype": "float32"}, {"name": "block2b_project_bn/moving_variance", "shape": [32], "dtype": "float32"}, {"name": "block2b_project_conv/kernel", "shape": [1, 1, 192, 32], "dtype": "float32"}, {"name": "block2b_se_expand/kernel", "shape": [1, 1, 8, 192], "dtype": "float32"}, {"name": "block2b_se_expand/bias", "shape": [192], "dtype": "float32"}, {"name": "block2b_se_reduce/kernel", "shape": [1, 1, 192, 8], "dtype": "float32"}, {"name": "block2b_se_reduce/bias", "shape": [8], "dtype": "float32"}, {"name": "block2c_bn/gamma", "shape": [192], "dtype": "float32"}, {"name": "block2c_bn/beta", "shape": [192], "dtype": "float32"}, {"name": "block2c_bn/moving_mean", "shape": [192], "dtype": "float32"}, {"name": "block2c_bn/moving_variance", "shape": [192], "dtype": "float32"}, {"name": "block2c_dwconv/kernel", "shape": [3, 3, 192, 1], "dtype": "float32"}, {"name": "block2c_expand_bn/gamma", "shape": [192], "dtype": "float32"}, {"name": "block2c_expand_bn/beta", "shape": [192], "dtype": "float32"}, {"name": "block2c_expand_bn/moving_mean", "shape": [192], "dtype": "float32"}, {"name": "block2c_expand_bn/moving_variance", "shape": [192], "dtype": "float32"}, {"name": "block2c_expand_conv/kernel", "shape": [1, 1, 32, 192], "dtype": "float32"}, {"name": "block2c_project_bn/gamma", "shape": [32], "dtype": "float32"}, {"name": "block2c_project_bn/beta", "shape": [32], "dtype": "float32"}, {"name": "block2c_project_bn/moving_mean", "shape": [32], "dtype": "float32"}, {"name": "block2c_project_bn/moving_variance", "shape": [32], "dtype": "float32"}, {"name": "block2c_project_conv/kernel", "shape": [1, 1, 192, 32], "dtype": "float32"}, {"name": "block2c_se_expand/kernel", "shape": [1, 1, 8, 192], "dtype": "float32"}, {"name": "block2c_se_expand/bias", "shape": [192], "dtype": "float32"}, {"name": "block2c_se_reduce/kernel", "shape": [1, 1, 192, 8], "dtype": "float32"}, {"name": "block2c_se_reduce/bias", "shape": [8], "dtype": "float32"}, {"name": "block2d_bn/gamma", "shape": [192], "dtype": "float32"}, {"name": "block2d_bn/beta", "shape": [192], "dtype": "float32"}, {"name": "block2d_bn/moving_mean", "shape": [192], "dtype": "float32"}, {"name": "block2d_bn/moving_variance", "shape": [192], "dtype": "float32"}, {"name": "block2d_dwconv/kernel", "shape": [3, 3, 192, 1], "dtype": "float32"}, {"name": "block2d_expand_bn/gamma", "shape": [192], "dtype": "float32"}, {"name": "block2d_expand_bn/beta", "shape": [192], "dtype": "float32"}, {"name": "block2d_expand_bn/moving_mean", "shape": [192], "dtype": "float32"}, {"name": "block2d_expand_bn/moving_variance", "shape": [192], "dtype": "float32"}, {"name": "block2d_expand_conv/kernel", "shape": [1, 1, 32, 192], "dtype": "float32"}, {"name": "block2d_project_bn/gamma", "shape": [32], "dtype": "float32"}, {"name": "block2d_project_bn/beta", "shape": [32], "dtype": "float32"}, {"name": "block2d_project_bn/moving_mean", "shape": [32], "dtype": "float32"}, {"name": "block2d_project_bn/moving_variance", "shape": [32], "dtype": "float32"}, {"name": "block2d_project_conv/kernel", "shape": [1, 1, 192, 32], "dtype": "float32"}, {"name": "block2d_se_expand/kernel", "shape": [1, 1, 8, 192], "dtype": "float32"}, {"name": "block2d_se_expand/bias", "shape": [192], "dtype": "float32"}, {"name": "block2d_se_reduce/kernel", "shape": [1, 1, 192, 8], "dtype": "float32"}, {"name": "block2d_se_reduce/bias", "shape": [8], "dtype": "float32"}, {"name": "block3a_bn/gamma", "shape": [192], "dtype": "float32"}, {"name": "block3a_bn/beta", "shape": [192], "dtype": "float32"}, {"name": "block3a_bn/moving_mean", "shape": [192], "dtype": "float32"}, {"name": "block3a_bn/moving_variance", "shape": [192], "dtype": "float32"}, {"name": "block3a_dwconv/kernel", "shape": [5, 5, 192, 1], "dtype": "float32"}, {"name": "block3a_expand_bn/gamma", "shape": [192], "dtype": "float32"}, {"name": "block3a_expand_bn/beta", "shape": [192], "dtype": "float32"}, {"name": "block3a_expand_bn/moving_mean", "shape": [192], "dtype": "float32"}, {"name": "block3a_expand_bn/moving_variance", "shape": [192], "dtype": "float32"}, {"name": "block3a_expand_conv/kernel", "shape": [1, 1, 32, 192], "dtype": "float32"}, {"name": "block3a_project_bn/gamma", "shape": [56], "dtype": "float32"}, {"name": "block3a_project_bn/beta", "shape": [56], "dtype": "float32"}, {"name": "block3a_project_bn/moving_mean", "shape": [56], "dtype": "float32"}, {"name": "block3a_project_bn/moving_variance", "shape": [56], "dtype": "float32"}, {"name": "block3a_project_conv/kernel", "shape": [1, 1, 192, 56], "dtype": "float32"}, {"name": "block3a_se_expand/kernel", "shape": [1, 1, 8, 192], "dtype": "float32"}, {"name": "block3a_se_expand/bias", "shape": [192], "dtype": "float32"}, {"name": "block3a_se_reduce/kernel", "shape": [1, 1, 192, 8], "dtype": "float32"}, {"name": "block3a_se_reduce/bias", "shape": [8], "dtype": "float32"}, {"name": "block3b_bn/gamma", "shape": [336], "dtype": "float32"}, {"name": "block3b_bn/beta", "shape": [336], "dtype": "float32"}, {"name": "block3b_bn/moving_mean", "shape": [336], "dtype": "float32"}, {"name": "block3b_bn/moving_variance", "shape": [336], "dtype": "float32"}, {"name": "block3b_dwconv/kernel", "shape": [5, 5, 336, 1], "dtype": "float32"}, {"name": "block3b_expand_bn/gamma", "shape": [336], "dtype": "float32"}, {"name": "block3b_expand_bn/beta", "shape": [336], "dtype": "float32"}, {"name": "block3b_expand_bn/moving_mean", "shape": [336], "dtype": "float32"}, {"name": "block3b_expand_bn/moving_variance", "shape": [336], "dtype": "float32"}, {"name": "block3b_expand_conv/kernel", "shape": [1, 1, 56, 336], "dtype": "float32"}, {"name": "block3b_project_bn/gamma", "shape": [56], "dtype": "float32"}, {"name": "block3b_project_bn/beta", "shape": [56], "dtype": "float32"}, {"name": "block3b_project_bn/moving_mean", "shape": [56], "dtype": "float32"}, {"name": "block3b_project_bn/moving_variance", "shape": [56], "dtype": "float32"}, {"name": "block3b_project_conv/kernel", "shape": [1, 1, 336, 56], "dtype": "float32"}, {"name": "block3b_se_expand/kernel", "shape": [1, 1, 14, 336], "dtype": "float32"}, {"name": "block3b_se_expand/bias", "shape": [336], "dtype": "float32"}, {"name": "block3b_se_reduce/kernel", "shape": [1, 1, 336, 14], "dtype": "float32"}, {"name": "block3b_se_reduce/bias", "shape": [14], "dtype": "float32"}, {"name": "block3c_bn/gamma", "shape": [336], "dtype": "float32"}, {"name": "block3c_bn/beta", "shape": [336], "dtype": "float32"}, {"name": "block3c_bn/moving_mean", "shape": [336], "dtype": "float32"}, {"name": "block3c_bn/moving_variance", "shape": [336], "dtype": "float32"}, {"name": "block3c_dwconv/kernel", "shape": [5, 5, 336, 1], "dtype": "float32"}, {"name": "block3c_expand_bn/gamma", "shape": [336], "dtype": "float32"}, {"name": "block3c_expand_bn/beta", "shape": [336], "dtype": "float32"}, {"name": "block3c_expand_bn/moving_mean", "shape": [336], "dtype": "float32"}, {"name": "block3c_expand_bn/moving_variance", "shape": [336], "dtype": "float32"}, {"name": "block3c_expand_conv/kernel", "shape": [1, 1, 56, 336], "dtype": "float32"}, {"name": "block3c_project_bn/gamma", "shape": [56], "dtype": "float32"}, {"name": "block3c_project_bn/beta", "shape": [56], "dtype": "float32"}, {"name": "block3c_project_bn/moving_mean", "shape": [56], "dtype": "float32"}, {"name": "block3c_project_bn/moving_variance", "shape": [56], "dtype": "float32"}, {"name": "block3c_project_conv/kernel", "shape": [1, 1, 336, 56], "dtype": "float32"}, {"name": "block3c_se_expand/kernel", "shape": [1, 1, 14, 336], "dtype": "float32"}, {"name": "block3c_se_expand/bias", "shape": [336], "dtype": "float32"}, {"name": "block3c_se_reduce/kernel", "shape": [1, 1, 336, 14], "dtype": "float32"}, {"name": "block3c_se_reduce/bias", "shape": [14], "dtype": "float32"}, {"name": "block3d_bn/gamma", "shape": [336], "dtype": "float32"}, {"name": "block3d_bn/beta", "shape": [336], "dtype": "float32"}, {"name": "block3d_bn/moving_mean", "shape": [336], "dtype": "float32"}, {"name": "block3d_bn/moving_variance", "shape": [336], "dtype": "float32"}, {"name": "block3d_dwconv/kernel", "shape": [5, 5, 336, 1], "dtype": "float32"}, {"name": "block3d_expand_bn/gamma", "shape": [336], "dtype": "float32"}, {"name": "block3d_expand_bn/beta", "shape": [336], "dtype": "float32"}, {"name": "block3d_expand_bn/moving_mean", "shape": [336], "dtype": "float32"}, {"name": "block3d_expand_bn/moving_variance", "shape": [336], "dtype": "float32"}, {"name": "block3d_expand_conv/kernel", "shape": [1, 1, 56, 336], "dtype": "float32"}, {"name": "block3d_project_bn/gamma", "shape": [56], "dtype": "float32"}, {"name": "block3d_project_bn/beta", "shape": [56], "dtype": "float32"}, {"name": "block3d_project_bn/moving_mean", "shape": [56], "dtype": "float32"}, {"name": "block3d_project_bn/moving_variance", "shape": [56], "dtype": "float32"}, {"name": "block3d_project_conv/kernel", "shape": [1, 1, 336, 56], "dtype": "float32"}, {"name": "block3d_se_expand/kernel", "shape": [1, 1, 14, 336], "dtype": "float32"}, {"name": "block3d_se_expand/bias", "shape": [336], "dtype": "float32"}, {"name": "block3d_se_reduce/kernel", "shape": [1, 1, 336, 14], "dtype": "float32"}, {"name": "block3d_se_reduce/bias", "shape": [14], "dtype": "float32"}, {"name": "block4a_bn/gamma", "shape": [336], "dtype": "float32"}, {"name": "block4a_bn/beta", "shape": [336], "dtype": "float32"}, {"name": "block4a_bn/moving_mean", "shape": [336], "dtype": "float32"}, {"name": "block4a_bn/moving_variance", "shape": [336], "dtype": "float32"}, {"name": "block4a_dwconv/kernel", "shape": [3, 3, 336, 1], "dtype": "float32"}, {"name": "block4a_expand_bn/gamma", "shape": [336], "dtype": "float32"}, {"name": "block4a_expand_bn/beta", "shape": [336], "dtype": "float32"}, {"name": "block4a_expand_bn/moving_mean", "shape": [336], "dtype": "float32"}, {"name": "block4a_expand_bn/moving_variance", "shape": [336], "dtype": "float32"}, {"name": "block4a_expand_conv/kernel", "shape": [1, 1, 56, 336], "dtype": "float32"}, {"name": "block4a_project_bn/gamma", "shape": [112], "dtype": "float32"}, {"name": "block4a_project_bn/beta", "shape": [112], "dtype": "float32"}, {"name": "block4a_project_bn/moving_mean", "shape": [112], "dtype": "float32"}, {"name": "block4a_project_bn/moving_variance", "shape": [112], "dtype": "float32"}, {"name": "block4a_project_conv/kernel", "shape": [1, 1, 336, 112], "dtype": "float32"}, {"name": "block4a_se_expand/kernel", "shape": [1, 1, 14, 336], "dtype": "float32"}, {"name": "block4a_se_expand/bias", "shape": [336], "dtype": "float32"}, {"name": "block4a_se_reduce/kernel", "shape": [1, 1, 336, 14], "dtype": "float32"}, {"name": "block4a_se_reduce/bias", "shape": [14], "dtype": "float32"}, {"name": "block4b_bn/gamma", "shape": [672], "dtype": "float32"}, {"name": "block4b_bn/beta", "shape": [672], "dtype": "float32"}, {"name": "block4b_bn/moving_mean", "shape": [672], "dtype": "float32"}, {"name": "block4b_bn/moving_variance", "shape": [672], "dtype": "float32"}, {"name": "block4b_dwconv/kernel", "shape": [3, 3, 672, 1], "dtype": "float32"}, {"name": "block4b_expand_bn/gamma", "shape": [672], "dtype": "float32"}, {"name": "block4b_expand_bn/beta", "shape": [672], "dtype": "float32"}, {"name": "block4b_expand_bn/moving_mean", "shape": [672], "dtype": "float32"}, {"name": "block4b_expand_bn/moving_variance", "shape": [672], "dtype": "float32"}, {"name": "block4b_expand_conv/kernel", "shape": [1, 1, 112, 672], "dtype": "float32"}, {"name": "block4b_project_bn/gamma", "shape": [112], "dtype": "float32"}, {"name": "block4b_project_bn/beta", "shape": [112], "dtype": "float32"}, {"name": "block4b_project_bn/moving_mean", "shape": [112], "dtype": "float32"}, {"name": "block4b_project_bn/moving_variance", "shape": [112], "dtype": "float32"}, {"name": "block4b_project_conv/kernel", "shape": [1, 1, 672, 112], "dtype": "float32"}, {"name": "block4b_se_expand/kernel", "shape": [1, 1, 28, 672], "dtype": "float32"}, {"name": "block4b_se_expand/bias", "shape": [672], "dtype": "float32"}, {"name": "block4b_se_reduce/kernel", "shape": [1, 1, 672, 28], "dtype": "float32"}, {"name": "block4b_se_reduce/bias", "shape": [28], "dtype": "float32"}, {"name": "block4c_bn/gamma", "shape": [672], "dtype": "float32"}, {"name": "block4c_bn/beta", "shape": [672], "dtype": "float32"}, {"name": "block4c_bn/moving_mean", "shape": [672], "dtype": "float32"}, {"name": "block4c_bn/moving_variance", "shape": [672], "dtype": "float32"}, {"name": "block4c_dwconv/kernel", "shape": [3, 3, 672, 1], "dtype": "float32"}, {"name": "block4c_expand_bn/gamma", "shape": [672], "dtype": "float32"}, {"name": "block4c_expand_bn/beta", "shape": [672], "dtype": "float32"}, {"name": "block4c_expand_bn/moving_mean", "shape": [672], "dtype": "float32"}, {"name": "block4c_expand_bn/moving_variance", "shape": [672], "dtype": "float32"}, {"name": "block4c_expand_conv/kernel", "shape": [1, 1, 112, 672], "dtype": "float32"}, {"name": "block4c_project_bn/gamma", "shape": [112], "dtype": "float32"}, {"name": "block4c_project_bn/beta", "shape": [112], "dtype": "float32"}, {"name": "block4c_project_bn/moving_mean", "shape": [112], "dtype": "float32"}, {"name": "block4c_project_bn/moving_variance", "shape": [112], "dtype": "float32"}, {"name": "block4c_project_conv/kernel", "shape": [1, 1, 672, 112], "dtype": "float32"}, {"name": "block4c_se_expand/kernel", "shape": [1, 1, 28, 672], "dtype": "float32"}, {"name": "block4c_se_expand/bias", "shape": [672], "dtype": "float32"}, {"name": "block4c_se_reduce/kernel", "shape": [1, 1, 672, 28], "dtype": "float32"}, {"name": "block4c_se_reduce/bias", "shape": [28], "dtype": "float32"}, {"name": "block4d_bn/gamma", "shape": [672], "dtype": "float32"}, {"name": "block4d_bn/beta", "shape": [672], "dtype": "float32"}, {"name": "block4d_bn/moving_mean", "shape": [672], "dtype": "float32"}, {"name": "block4d_bn/moving_variance", "shape": [672], "dtype": "float32"}, {"name": "block4d_dwconv/kernel", "shape": [3, 3, 672, 1], "dtype": "float32"}, {"name": "block4d_expand_bn/gamma", "shape": [672], "dtype": "float32"}, {"name": "block4d_expand_bn/beta", "shape": [672], "dtype": "float32"}, {"name": "block4d_expand_bn/moving_mean", "shape": [672], "dtype": "float32"}, {"name": "block4d_expand_bn/moving_variance", "shape": [672], "dtype": "float32"}, {"name": "block4d_expand_conv/kernel", "shape": [1, 1, 112, 672], "dtype": "float32"}, {"name": "block4d_project_bn/gamma", "shape": [112], "dtype": "float32"}, {"name": "block4d_project_bn/beta", "shape": [112], "dtype": "float32"}, {"name": "block4d_project_bn/moving_mean", "shape": [112], "dtype": "float32"}, {"name": "block4d_project_bn/moving_variance", "shape": [112], "dtype": "float32"}, {"name": "block4d_project_conv/kernel", "shape": [1, 1, 672, 112], "dtype": "float32"}, {"name": "block4d_se_expand/kernel", "shape": [1, 1, 28, 672], "dtype": "float32"}, {"name": "block4d_se_expand/bias", "shape": [672], "dtype": "float32"}, {"name": "block4d_se_reduce/kernel", "shape": [1, 1, 672, 28], "dtype": "float32"}, {"name": "block4d_se_reduce/bias", "shape": [28], "dtype": "float32"}, {"name": "block4e_bn/gamma", "shape": [672], "dtype": "float32"}, {"name": "block4e_bn/beta", "shape": [672], "dtype": "float32"}, {"name": "block4e_bn/moving_mean", "shape": [672], "dtype": "float32"}, {"name": "block4e_bn/moving_variance", "shape": [672], "dtype": "float32"}, {"name": "block4e_dwconv/kernel", "shape": [3, 3, 672, 1], "dtype": "float32"}, {"name": "block4e_expand_bn/gamma", "shape": [672], "dtype": "float32"}, {"name": "block4e_expand_bn/beta", "shape": [672], "dtype": "float32"}, {"name": "block4e_expand_bn/moving_mean", "shape": [672], "dtype": "float32"}, {"name": "block4e_expand_bn/moving_variance", "shape": [672], "dtype": "float32"}, {"name": "block4e_expand_conv/kernel", "shape": [1, 1, 112, 672], "dtype": "float32"}, {"name": "block4e_project_bn/gamma", "shape": [112], "dtype": "float32"}, {"name": "block4e_project_bn/beta", "shape": [112], "dtype": "float32"}, {"name": "block4e_project_bn/moving_mean", "shape": [112], "dtype": "float32"}, {"name": "block4e_project_bn/moving_variance", "shape": [112], "dtype": "float32"}, {"name": "block4e_project_conv/kernel", "shape": [1, 1, 672, 112], "dtype": "float32"}, {"name": "block4e_se_expand/kernel", "shape": [1, 1, 28, 672], "dtype": "float32"}, {"name": "block4e_se_expand/bias", "shape": [672], "dtype": "float32"}, {"name": "block4e_se_reduce/kernel", "shape": [1, 1, 672, 28], "dtype": "float32"}, {"name": "block4e_se_reduce/bias", "shape": [28], "dtype": "float32"}, {"name": "block4f_bn/gamma", "shape": [672], "dtype": "float32"}, {"name": "block4f_bn/beta", "shape": [672], "dtype": "float32"}, {"name": "block4f_bn/moving_mean", "shape": [672], "dtype": "float32"}, {"name": "block4f_bn/moving_variance", "shape": [672], "dtype": "float32"}, {"name": "block4f_dwconv/kernel", "shape": [3, 3, 672, 1], "dtype": "float32"}, {"name": "block4f_expand_bn/gamma", "shape": [672], "dtype": "float32"}, {"name": "block4f_expand_bn/beta", "shape": [672], "dtype": "float32"}, {"name": "block4f_expand_bn/moving_mean", "shape": [672], "dtype": "float32"}, {"name": "block4f_expand_bn/moving_variance", "shape": [672], "dtype": "float32"}, {"name": "block4f_expand_conv/kernel", "shape": [1, 1, 112, 672], "dtype": "float32"}, {"name": "block4f_project_bn/gamma", "shape": [112], "dtype": "float32"}, {"name": "block4f_project_bn/beta", "shape": [112], "dtype": "float32"}, {"name": "block4f_project_bn/moving_mean", "shape": [112], "dtype": "float32"}, {"name": "block4f_project_bn/moving_variance", "shape": [112], "dtype": "float32"}, {"name": "block4f_project_conv/kernel", "shape": [1, 1, 672, 112], "dtype": "float32"}, {"name": "block4f_se_expand/kernel", "shape": [1, 1, 28, 672], "dtype": "float32"}, {"name": "block4f_se_expand/bias", "shape": [672], "dtype": "float32"}, {"name": "block4f_se_reduce/kernel", "shape": [1, 1, 672, 28], "dtype": "float32"}, {"name": "block4f_se_reduce/bias", "shape": [28], "dtype": "float32"}, {"name": "block5a_bn/gamma", "shape": [672], "dtype": "float32"}, {"name": "block5a_bn/beta", "shape": [672], "dtype": "float32"}, {"name": "block5a_bn/moving_mean", "shape": [672], "dtype": "float32"}, {"name": "block5a_bn/moving_variance", "shape": [672], "dtype": "float32"}, {"name": "block5a_dwconv/kernel", "shape": [5, 5, 672, 1], "dtype": "float32"}, {"name": "block5a_expand_bn/gamma", "shape": [672], "dtype": "float32"}, {"name": "block5a_expand_bn/beta", "shape": [672], "dtype": "float32"}, {"name": "block5a_expand_bn/moving_mean", "shape": [672], "dtype": "float32"}, {"name": "block5a_expand_bn/moving_variance", "shape": [672], "dtype": "float32"}, {"name": "block5a_expand_conv/kernel", "shape": [1, 1, 112, 672], "dtype": "float32"}, {"name": "block5a_project_bn/gamma", "shape": [160], "dtype": "float32"}, {"name": "block5a_project_bn/beta", "shape": [160], "dtype": "float32"}, {"name": "block5a_project_bn/moving_mean", "shape": [160], "dtype": "float32"}, {"name": "block5a_project_bn/moving_variance", "shape": [160], "dtype": "float32"}, {"name": "block5a_project_conv/kernel", "shape": [1, 1, 672, 160], "dtype": "float32"}, {"name": "block5a_se_expand/kernel", "shape": [1, 1, 28, 672], "dtype": "float32"}, {"name": "block5a_se_expand/bias", "shape": [672], "dtype": "float32"}, {"name": "block5a_se_reduce/kernel", "shape": [1, 1, 672, 28], "dtype": "float32"}, {"name": "block5a_se_reduce/bias", "shape": [28], "dtype": "float32"}, {"name": "block5b_bn/gamma", "shape": [960], "dtype": "float32"}, {"name": "block5b_bn/beta", "shape": [960], "dtype": "float32"}, {"name": "block5b_bn/moving_mean", "shape": [960], "dtype": "float32"}, {"name": "block5b_bn/moving_variance", "shape": [960], "dtype": "float32"}, {"name": "block5b_dwconv/kernel", "shape": [5, 5, 960, 1], "dtype": "float32"}, {"name": "block5b_expand_bn/gamma", "shape": [960], "dtype": "float32"}, {"name": "block5b_expand_bn/beta", "shape": [960], "dtype": "float32"}, {"name": "block5b_expand_bn/moving_mean", "shape": [960], "dtype": "float32"}, {"name": "block5b_expand_bn/moving_variance", "shape": [960], "dtype": "float32"}, {"name": "block5b_expand_conv/kernel", "shape": [1, 1, 160, 960], "dtype": "float32"}, {"name": "block5b_project_bn/gamma", "shape": [160], "dtype": "float32"}, {"name": "block5b_project_bn/beta", "shape": [160], "dtype": "float32"}, {"name": "block5b_project_bn/moving_mean", "shape": [160], "dtype": "float32"}, {"name": "block5b_project_bn/moving_variance", "shape": [160], "dtype": "float32"}, {"name": "block5b_project_conv/kernel", "shape": [1, 1, 960, 160], "dtype": "float32"}, {"name": "block5b_se_expand/kernel", "shape": [1, 1, 40, 960], "dtype": "float32"}, {"name": "block5b_se_expand/bias", "shape": [960], "dtype": "float32"}, {"name": "block5b_se_reduce/kernel", "shape": [1, 1, 960, 40], "dtype": "float32"}, {"name": "block5b_se_reduce/bias", "shape": [40], "dtype": "float32"}, {"name": "block5c_bn/gamma", "shape": [960], "dtype": "float32"}, {"name": "block5c_bn/beta", "shape": [960], "dtype": "float32"}, {"name": "block5c_bn/moving_mean", "shape": [960], "dtype": "float32"}, {"name": "block5c_bn/moving_variance", "shape": [960], "dtype": "float32"}, {"name": "block5c_dwconv/kernel", "shape": [5, 5, 960, 1], "dtype": "float32"}, {"name": "block5c_expand_bn/gamma", "shape": [960], "dtype": "float32"}, {"name": "block5c_expand_bn/beta", "shape": [960], "dtype": "float32"}, {"name": "block5c_expand_bn/moving_mean", "shape": [960], "dtype": "float32"}, {"name": "block5c_expand_bn/moving_variance", "shape": [960], "dtype": "float32"}, {"name": "block5c_expand_conv/kernel", "shape": [1, 1, 160, 960], "dtype": "float32"}, {"name": "block5c_project_bn/gamma", "shape": [160], "dtype": "float32"}, {"name": "block5c_project_bn/beta", "shape": [160], "dtype": "float32"}, {"name": "block5c_project_bn/moving_mean", "shape": [160], "dtype": "float32"}, {"name": "block5c_project_bn/moving_variance", "shape": [160], "dtype": "float32"}, {"name": "block5c_project_conv/kernel", "shape": [1, 1, 960, 160], "dtype": "float32"}, {"name": "block5c_se_expand/kernel", "shape": [1, 1, 40, 960], "dtype": "float32"}, {"name": "block5c_se_expand/bias", "shape": [960], "dtype": "float32"}, {"name": "block5c_se_reduce/kernel", "shape": [1, 1, 960, 40], "dtype": "float32"}, {"name": "block5c_se_reduce/bias", "shape": [40], "dtype": "float32"}, {"name": "block5d_bn/gamma", "shape": [960], "dtype": "float32"}, {"name": "block5d_bn/beta", "shape": [960], "dtype": "float32"}, {"name": "block5d_bn/moving_mean", "shape": [960], "dtype": "float32"}, {"name": "block5d_bn/moving_variance", "shape": [960], "dtype": "float32"}, {"name": "block5d_dwconv/kernel", "shape": [5, 5, 960, 1], "dtype": "float32"}, {"name": "block5d_expand_bn/gamma", "shape": [960], "dtype": "float32"}, {"name": "block5d_expand_bn/beta", "shape": [960], "dtype": "float32"}, {"name": "block5d_expand_bn/moving_mean", "shape": [960], "dtype": "float32"}, {"name": "block5d_expand_bn/moving_variance", "shape": [960], "dtype": "float32"}, {"name": "block5d_expand_conv/kernel", "shape": [1, 1, 160, 960], "dtype": "float32"}, {"name": "block5d_project_bn/gamma", "shape": [160], "dtype": "float32"}, {"name": "block5d_project_bn/beta", "shape": [160], "dtype": "float32"}, {"name": "block5d_project_bn/moving_mean", "shape": [160], "dtype": "float32"}, {"name": "block5d_project_bn/moving_variance", "shape": [160], "dtype": "float32"}, {"name": "block5d_project_conv/kernel", "shape": [1, 1, 960, 160], "dtype": "float32"}, {"name": "block5d_se_expand/kernel", "shape": [1, 1, 40, 960], "dtype": "float32"}, {"name": "block5d_se_expand/bias", "shape": [960], "dtype": "float32"}, {"name": "block5d_se_reduce/kernel", "shape": [1, 1, 960, 40], "dtype": "float32"}, {"name": "block5d_se_reduce/bias", "shape": [40], "dtype": "float32"}, {"name": "block5e_bn/gamma", "shape": [960], "dtype": "float32"}, {"name": "block5e_bn/beta", "shape": [960], "dtype": "float32"}, {"name": "block5e_bn/moving_mean", "shape": [960], "dtype": "float32"}, {"name": "block5e_bn/moving_variance", "shape": [960], "dtype": "float32"}, {"name": "block5e_dwconv/kernel", "shape": [5, 5, 960, 1], "dtype": "float32"}, {"name": "block5e_expand_bn/gamma", "shape": [960], "dtype": "float32"}, {"name": "block5e_expand_bn/beta", "shape": [960], "dtype": "float32"}, {"name": "block5e_expand_bn/moving_mean", "shape": [960], "dtype": "float32"}, {"name": "block5e_expand_bn/moving_variance", "shape": [960], "dtype": "float32"}, {"name": "block5e_expand_conv/kernel", "shape": [1, 1, 160, 960], "dtype": "float32"}, {"name": "block5e_project_bn/gamma", "shape": [160], "dtype": "float32"}, {"name": "block5e_project_bn/beta", "shape": [160], "dtype": "float32"}, {"name": "block5e_project_bn/moving_mean", "shape": [160], "dtype": "float32"}, {"name": "block5e_project_bn/moving_variance", "shape": [160], "dtype": "float32"}, {"name": "block5e_project_conv/kernel", "shape": [1, 1, 960, 160], "dtype": "float32"}, {"name": "block5e_se_expand/kernel", "shape": [1, 1, 40, 960], "dtype": "float32"}, {"name": "block5e_se_expand/bias", "shape": [960], "dtype": "float32"}, {"name": "block5e_se_reduce/kernel", "shape": [1, 1, 960, 40], "dtype": "float32"}, {"name": "block5e_se_reduce/bias", "shape": [40], "dtype": "float32"}, {"name": "block5f_bn/gamma", "shape": [960], "dtype": "float32"}, {"name": "block5f_bn/beta", "shape": [960], "dtype": "float32"}, {"name": "block5f_bn/moving_mean", "shape": [960], "dtype": "float32"}, {"name": "block5f_bn/moving_variance", "shape": [960], "dtype": "float32"}, {"name": "block5f_dwconv/kernel", "shape": [5, 5, 960, 1], "dtype": "float32"}, {"name": "block5f_expand_bn/gamma", "shape": [960], "dtype": "float32"}, {"name": "block5f_expand_bn/beta", "shape": [960], "dtype": "float32"}, {"name": "block5f_expand_bn/moving_mean", "shape": [960], "dtype": "float32"}, {"name": "block5f_expand_bn/moving_variance", "shape": [960], "dtype": "float32"}, {"name": "block5f_expand_conv/kernel", "shape": [1, 1, 160, 960], "dtype": "float32"}, {"name": "block5f_project_bn/gamma", "shape": [160], "dtype": "float32"}, {"name": "block5f_project_bn/beta", "shape": [160], "dtype": "float32"}, {"name": "block5f_project_bn/moving_mean", "shape": [160], "dtype": "float32"}, {"name": "block5f_project_bn/moving_variance", "shape": [160], "dtype": "float32"}, {"name": "block5f_project_conv/kernel", "shape": [1, 1, 960, 160], "dtype": "float32"}, {"name": "block5f_se_expand/kernel", "shape": [1, 1, 40, 960], "dtype": "float32"}, {"name": "block5f_se_expand/bias", "shape": [960], "dtype": "float32"}, {"name": "block5f_se_reduce/kernel", "shape": [1, 1, 960, 40], "dtype": "float32"}, {"name": "block5f_se_reduce/bias", "shape": [40], "dtype": "float32"}, {"name": "block6a_bn/gamma", "shape": [960], "dtype": "float32"}, {"name": "block6a_bn/beta", "shape": [960], "dtype": "float32"}, {"name": "block6a_bn/moving_mean", "shape": [960], "dtype": "float32"}, {"name": "block6a_bn/moving_variance", "shape": [960], "dtype": "float32"}, {"name": "block6a_dwconv/kernel", "shape": [5, 5, 960, 1], "dtype": "float32"}, {"name": "block6a_expand_bn/gamma", "shape": [960], "dtype": "float32"}, {"name": "block6a_expand_bn/beta", "shape": [960], "dtype": "float32"}, {"name": "block6a_expand_bn/moving_mean", "shape": [960], "dtype": "float32"}, {"name": "block6a_expand_bn/moving_variance", "shape": [960], "dtype": "float32"}, {"name": "block6a_expand_conv/kernel", "shape": [1, 1, 160, 960], "dtype": "float32"}, {"name": "block6a_project_bn/gamma", "shape": [272], "dtype": "float32"}, {"name": "block6a_project_bn/beta", "shape": [272], "dtype": "float32"}, {"name": "block6a_project_bn/moving_mean", "shape": [272], "dtype": "float32"}, {"name": "block6a_project_bn/moving_variance", "shape": [272], "dtype": "float32"}, {"name": "block6a_project_conv/kernel", "shape": [1, 1, 960, 272], "dtype": "float32"}, {"name": "block6a_se_expand/kernel", "shape": [1, 1, 40, 960], "dtype": "float32"}, {"name": "block6a_se_expand/bias", "shape": [960], "dtype": "float32"}, {"name": "block6a_se_reduce/kernel", "shape": [1, 1, 960, 40], "dtype": "float32"}, {"name": "block6a_se_reduce/bias", "shape": [40], "dtype": "float32"}, {"name": "block6b_bn/gamma", "shape": [1632], "dtype": "float32"}, {"name": "block6b_bn/beta", "shape": [1632], "dtype": "float32"}, {"name": "block6b_bn/moving_mean", "shape": [1632], "dtype": "float32"}, {"name": "block6b_bn/moving_variance", "shape": [1632], "dtype": "float32"}, {"name": "block6b_dwconv/kernel", "shape": [5, 5, 1632, 1], "dtype": "float32"}, {"name": "block6b_expand_bn/gamma", "shape": [1632], "dtype": "float32"}, {"name": "block6b_expand_bn/beta", "shape": [1632], "dtype": "float32"}, {"name": "block6b_expand_bn/moving_mean", "shape": [1632], "dtype": "float32"}, {"name": "block6b_expand_bn/moving_variance", "shape": [1632], "dtype": "float32"}, {"name": "block6b_expand_conv/kernel", "shape": [1, 1, 272, 1632], "dtype": "float32"}, {"name": "block6b_project_bn/gamma", "shape": [272], "dtype": "float32"}, {"name": "block6b_project_bn/beta", "shape": [272], "dtype": "float32"}, {"name": "block6b_project_bn/moving_mean", "shape": [272], "dtype": "float32"}, {"name": "block6b_project_bn/moving_variance", "shape": [272], "dtype": "float32"}, {"name": "block6b_project_conv/kernel", "shape": [1, 1, 1632, 272], "dtype": "float32"}, {"name": "block6b_se_expand/kernel", "shape": [1, 1, 68, 1632], "dtype": "float32"}, {"name": "block6b_se_expand/bias", "shape": [1632], "dtype": "float32"}, {"name": "block6b_se_reduce/kernel", "shape": [1, 1, 1632, 68], "dtype": "float32"}, {"name": "block6b_se_reduce/bias", "shape": [68], "dtype": "float32"}, {"name": "block6c_bn/gamma", "shape": [1632], "dtype": "float32"}, {"name": "block6c_bn/beta", "shape": [1632], "dtype": "float32"}, {"name": "block6c_bn/moving_mean", "shape": [1632], "dtype": "float32"}, {"name": "block6c_bn/moving_variance", "shape": [1632], "dtype": "float32"}, {"name": "block6c_dwconv/kernel", "shape": [5, 5, 1632, 1], "dtype": "float32"}, {"name": "block6c_expand_bn/gamma", "shape": [1632], "dtype": "float32"}, {"name": "block6c_expand_bn/beta", "shape": [1632], "dtype": "float32"}, {"name": "block6c_expand_bn/moving_mean", "shape": [1632], "dtype": "float32"}, {"name": "block6c_expand_bn/moving_variance", "shape": [1632], "dtype": "float32"}, {"name": "block6c_expand_conv/kernel", "shape": [1, 1, 272, 1632], "dtype": "float32"}, {"name": "block6c_project_bn/gamma", "shape": [272], "dtype": "float32"}, {"name": "block6c_project_bn/beta", "shape": [272], "dtype": "float32"}, {"name": "block6c_project_bn/moving_mean", "shape": [272], "dtype": "float32"}, {"name": "block6c_project_bn/moving_variance", "shape": [272], "dtype": "float32"}, {"name": "block6c_project_conv/kernel", "shape": [1, 1, 1632, 272], "dtype": "float32"}, {"name": "block6c_se_expand/kernel", "shape": [1, 1, 68, 1632], "dtype": "float32"}, {"name": "block6c_se_expand/bias", "shape": [1632], "dtype": "float32"}, {"name": "block6c_se_reduce/kernel", "shape": [1, 1, 1632, 68], "dtype": "float32"}, {"name": "block6c_se_reduce/bias", "shape": [68], "dtype": "float32"}, {"name": "block6d_bn/gamma", "shape": [1632], "dtype": "float32"}, {"name": "block6d_bn/beta", "shape": [1632], "dtype": "float32"}, {"name": "block6d_bn/moving_mean", "shape": [1632], "dtype": "float32"}, {"name": "block6d_bn/moving_variance", "shape": [1632], "dtype": "float32"}, {"name": "block6d_dwconv/kernel", "shape": [5, 5, 1632, 1], "dtype": "float32"}, {"name": "block6d_expand_bn/gamma", "shape": [1632], "dtype": "float32"}, {"name": "block6d_expand_bn/beta", "shape": [1632], "dtype": "float32"}, {"name": "block6d_expand_bn/moving_mean", "shape": [1632], "dtype": "float32"}, {"name": "block6d_expand_bn/moving_variance", "shape": [1632], "dtype": "float32"}, {"name": "block6d_expand_conv/kernel", "shape": [1, 1, 272, 1632], "dtype": "float32"}, {"name": "block6d_project_bn/gamma", "shape": [272], "dtype": "float32"}, {"name": "block6d_project_bn/beta", "shape": [272], "dtype": "float32"}, {"name": "block6d_project_bn/moving_mean", "shape": [272], "dtype": "float32"}, {"name": "block6d_project_bn/moving_variance", "shape": [272], "dtype": "float32"}, {"name": "block6d_project_conv/kernel", "shape": [1, 1, 1632, 272], "dtype": "float32"}, {"name": "block6d_se_expand/kernel", "shape": [1, 1, 68, 1632], "dtype": "float32"}, {"name": "block6d_se_expand/bias", "shape": [1632], "dtype": "float32"}, {"name": "block6d_se_reduce/kernel", "shape": [1, 1, 1632, 68], "dtype": "float32"}, {"name": "block6d_se_reduce/bias", "shape": [68], "dtype": "float32"}, {"name": "block6e_bn/gamma", "shape": [1632], "dtype": "float32"}, {"name": "block6e_bn/beta", "shape": [1632], "dtype": "float32"}, {"name": "block6e_bn/moving_mean", "shape": [1632], "dtype": "float32"}, {"name": "block6e_bn/moving_variance", "shape": [1632], "dtype": "float32"}, {"name": "block6e_dwconv/kernel", "shape": [5, 5, 1632, 1], "dtype": "float32"}, {"name": "block6e_expand_bn/gamma", "shape": [1632], "dtype": "float32"}, {"name": "block6e_expand_bn/beta", "shape": [1632], "dtype": "float32"}, {"name": "block6e_expand_bn/moving_mean", "shape": [1632], "dtype": "float32"}, {"name": "block6e_expand_bn/moving_variance", "shape": [1632], "dtype": "float32"}, {"name": "block6e_expand_conv/kernel", "shape": [1, 1, 272, 1632], "dtype": "float32"}, {"name": "block6e_project_bn/gamma", "shape": [272], "dtype": "float32"}, {"name": "block6e_project_bn/beta", "shape": [272], "dtype": "float32"}, {"name": "block6e_project_bn/moving_mean", "shape": [272], "dtype": "float32"}, {"name": "block6e_project_bn/moving_variance", "shape": [272], "dtype": "float32"}, {"name": "block6e_project_conv/kernel", "shape": [1, 1, 1632, 272], "dtype": "float32"}, {"name": "block6e_se_expand/kernel", "shape": [1, 1, 68, 1632], "dtype": "float32"}, {"name": "block6e_se_expand/bias", "shape": [1632], "dtype": "float32"}, {"name": "block6e_se_reduce/kernel", "shape": [1, 1, 1632, 68], "dtype": "float32"}, {"name": "block6e_se_reduce/bias", "shape": [68], "dtype": "float32"}, {"name": "block6f_bn/gamma", "shape": [1632], "dtype": "float32"}, {"name": "block6f_bn/beta", "shape": [1632], "dtype": "float32"}, {"name": "block6f_bn/moving_mean", "shape": [1632], "dtype": "float32"}, {"name": "block6f_bn/moving_variance", "shape": [1632], "dtype": "float32"}, {"name": "block6f_dwconv/kernel", "shape": [5, 5, 1632, 1], "dtype": "float32"}, {"name": "block6f_expand_bn/gamma", "shape": [1632], "dtype": "float32"}, {"name": "block6f_expand_bn/beta", "shape": [1632], "dtype": "float32"}, {"name": "block6f_expand_bn/moving_mean", "shape": [1632], "dtype": "float32"}, {"name": "block6f_expand_bn/moving_variance", "shape": [1632], "dtype": "float32"}, {"name": "block6f_expand_conv/kernel", "shape": [1, 1, 272, 1632], "dtype": "float32"}, {"name": "block6f_project_bn/gamma", "shape": [272], "dtype": "float32"}, {"name": "block6f_project_bn/beta", "shape": [272], "dtype": "float32"}, {"name": "block6f_project_bn/moving_mean", "shape": [272], "dtype": "float32"}, {"name": "block6f_project_bn/moving_variance", "shape": [272], "dtype": "float32"}, {"name": "block6f_project_conv/kernel", "shape": [1, 1, 1632, 272], "dtype": "float32"}, {"name": "block6f_se_expand/kernel", "shape": [1, 1, 68, 1632], "dtype": "float32"}, {"name": "block6f_se_expand/bias", "shape": [1632], "dtype": "float32"}, {"name": "block6f_se_reduce/kernel", "shape": [1, 1, 1632, 68], "dtype": "float32"}, {"name": "block6f_se_reduce/bias", "shape": [68], "dtype": "float32"}, {"name": "block6g_bn/gamma", "shape": [1632], "dtype": "float32"}, {"name": "block6g_bn/beta", "shape": [1632], "dtype": "float32"}, {"name": "block6g_bn/moving_mean", "shape": [1632], "dtype": "float32"}, {"name": "block6g_bn/moving_variance", "shape": [1632], "dtype": "float32"}, {"name": "block6g_dwconv/kernel", "shape": [5, 5, 1632, 1], "dtype": "float32"}, {"name": "block6g_expand_bn/gamma", "shape": [1632], "dtype": "float32"}, {"name": "block6g_expand_bn/beta", "shape": [1632], "dtype": "float32"}, {"name": "block6g_expand_bn/moving_mean", "shape": [1632], "dtype": "float32"}, {"name": "block6g_expand_bn/moving_variance", "shape": [1632], "dtype": "float32"}, {"name": "block6g_expand_conv/kernel", "shape": [1, 1, 272, 1632], "dtype": "float32"}, {"name": "block6g_project_bn/gamma", "shape": [272], "dtype": "float32"}, {"name": "block6g_project_bn/beta", "shape": [272], "dtype": "float32"}, {"name": "block6g_project_bn/moving_mean", "shape": [272], "dtype": "float32"}, {"name": "block6g_project_bn/moving_variance", "shape": [272], "dtype": "float32"}, {"name": "block6g_project_conv/kernel", "shape": [1, 1, 1632, 272], "dtype": "float32"}, {"name": "block6g_se_expand/kernel", "shape": [1, 1, 68, 1632], "dtype": "float32"}, {"name": "block6g_se_expand/bias", "shape": [1632], "dtype": "float32"}, {"name": "block6g_se_reduce/kernel", "shape": [1, 1, 1632, 68], "dtype": "float32"}, {"name": "block6g_se_reduce/bias", "shape": [68], "dtype": "float32"}, {"name": "block6h_bn/gamma", "shape": [1632], "dtype": "float32"}, {"name": "block6h_bn/beta", "shape": [1632], "dtype": "float32"}, {"name": "block6h_bn/moving_mean", "shape": [1632], "dtype": "float32"}, {"name": "block6h_bn/moving_variance", "shape": [1632], "dtype": "float32"}, {"name": "block6h_dwconv/kernel", "shape": [5, 5, 1632, 1], "dtype": "float32"}, {"name": "block6h_expand_bn/gamma", "shape": [1632], "dtype": "float32"}, {"name": "block6h_expand_bn/beta", "shape": [1632], "dtype": "float32"}, {"name": "block6h_expand_bn/moving_mean", "shape": [1632], "dtype": "float32"}, {"name": "block6h_expand_bn/moving_variance", "shape": [1632], "dtype": "float32"}, {"name": "block6h_expand_conv/kernel", "shape": [1, 1, 272, 1632], "dtype": "float32"}, {"name": "block6h_project_bn/gamma", "shape": [272], "dtype": "float32"}, {"name": "block6h_project_bn/beta", "shape": [272], "dtype": "float32"}, {"name": "block6h_project_bn/moving_mean", "shape": [272], "dtype": "float32"}, {"name": "block6h_project_bn/moving_variance", "shape": [272], "dtype": "float32"}, {"name": "block6h_project_conv/kernel", "shape": [1, 1, 1632, 272], "dtype": "float32"}, {"name": "block6h_se_expand/kernel", "shape": [1, 1, 68, 1632], "dtype": "float32"}, {"name": "block6h_se_expand/bias", "shape": [1632], "dtype": "float32"}, {"name": "block6h_se_reduce/kernel", "shape": [1, 1, 1632, 68], "dtype": "float32"}, {"name": "block6h_se_reduce/bias", "shape": [68], "dtype": "float32"}, {"name": "block7a_bn/gamma", "shape": [1632], "dtype": "float32"}, {"name": "block7a_bn/beta", "shape": [1632], "dtype": "float32"}, {"name": "block7a_bn/moving_mean", "shape": [1632], "dtype": "float32"}, {"name": "block7a_bn/moving_variance", "shape": [1632], "dtype": "float32"}, {"name": "block7a_dwconv/kernel", "shape": [3, 3, 1632, 1], "dtype": "float32"}, {"name": "block7a_expand_bn/gamma", "shape": [1632], "dtype": "float32"}, {"name": "block7a_expand_bn/beta", "shape": [1632], "dtype": "float32"}, {"name": "block7a_expand_bn/moving_mean", "shape": [1632], "dtype": "float32"}, {"name": "block7a_expand_bn/moving_variance", "shape": [1632], "dtype": "float32"}, {"name": "block7a_expand_conv/kernel", "shape": [1, 1, 272, 1632], "dtype": "float32"}, {"name": "block7a_project_bn/gamma", "shape": [448], "dtype": "float32"}, {"name": "block7a_project_bn/beta", "shape": [448], "dtype": "float32"}, {"name": "block7a_project_bn/moving_mean", "shape": [448], "dtype": "float32"}, {"name": "block7a_project_bn/moving_variance", "shape": [448], "dtype": "float32"}, {"name": "block7a_project_conv/kernel", "shape": [1, 1, 1632, 448], "dtype": "float32"}, {"name": "block7a_se_expand/kernel", "shape": [1, 1, 68, 1632], "dtype": "float32"}, {"name": "block7a_se_expand/bias", "shape": [1632], "dtype": "float32"}, {"name": "block7a_se_reduce/kernel", "shape": [1, 1, 1632, 68], "dtype": "float32"}, {"name": "block7a_se_reduce/bias", "shape": [68], "dtype": "float32"}, {"name": "block7b_bn/gamma", "shape": [2688], "dtype": "float32"}, {"name": "block7b_bn/beta", "shape": [2688], "dtype": "float32"}, {"name": "block7b_bn/moving_mean", "shape": [2688], "dtype": "float32"}, {"name": "block7b_bn/moving_variance", "shape": [2688], "dtype": "float32"}, {"name": "block7b_dwconv/kernel", "shape": [3, 3, 2688, 1], "dtype": "float32"}, {"name": "block7b_expand_bn/gamma", "shape": [2688], "dtype": "float32"}, {"name": "block7b_expand_bn/beta", "shape": [2688], "dtype": "float32"}, {"name": "block7b_expand_bn/moving_mean", "shape": [2688], "dtype": "float32"}, {"name": "block7b_expand_bn/moving_variance", "shape": [2688], "dtype": "float32"}, {"name": "block7b_expand_conv/kernel", "shape": [1, 1, 448, 2688], "dtype": "float32"}, {"name": "block7b_project_bn/gamma", "shape": [448], "dtype": "float32"}, {"name": "block7b_project_bn/beta", "shape": [448], "dtype": "float32"}, {"name": "block7b_project_bn/moving_mean", "shape": [448], "dtype": "float32"}, {"name": "block7b_project_bn/moving_variance", "shape": [448], "dtype": "float32"}, {"name": "block7b_project_conv/kernel", "shape": [1, 1, 2688, 448], "dtype": "float32"}, {"name": "block7b_se_expand/kernel", "shape": [1, 1, 112, 2688], "dtype": "float32"}, {"name": "block7b_se_expand/bias", "shape": [2688], "dtype": "float32"}, {"name": "block7b_se_reduce/kernel", "shape": [1, 1, 2688, 112], "dtype": "float32"}, {"name": "block7b_se_reduce/bias", "shape": [112], "dtype": "float32"}, {"name": "dense_3/kernel", "shape": [1792, 4], "dtype": "float32"}, {"name": "dense_3/bias", "shape": [4], "dtype": "float32"}, {"name": "normalization_3/mean", "shape": [3], "dtype": "float32"}, {"name": "normalization_3/variance", "shape": [3], "dtype": "float32"}, {"name": "normalization_3/count", "shape": [], "dtype": "int32"}, {"name": "stem_bn/gamma", "shape": [48], "dtype": "float32"}, {"name": "stem_bn/beta", "shape": [48], "dtype": "float32"}, {"name": "stem_bn/moving_mean", "shape": [48], "dtype": "float32"}, {"name": "stem_bn/moving_variance", "shape": [48], "dtype": "float32"}, {"name": "stem_conv/kernel", "shape": [3, 3, 3, 48], "dtype": "float32"}, {"name": "top_bn/gamma", "shape": [1792], "dtype": "float32"}, {"name": "top_bn/beta", "shape": [1792], "dtype": "float32"}, {"name": "top_bn/moving_mean", "shape": [1792], "dtype": "float32"}, {"name": "top_bn/moving_variance", "shape": [1792], "dtype": "float32"}, {"name": "top_conv/kernel", "shape": [1, 1, 448, 1792], "dtype": "float32"}]}]}